AlexNet-19-112/case/initializer/conv4_mutated/weight.npz (npz, 6026 bytes, 1 tensors)

matrix f8 [10, 8, 3, 3]
00000000: 708b 1d09 a2ea 8abf b8e0 a68f 9d1a be3f
00000010: 64e3 34a1 24f0 c33f 2809 ddfb f1dd bd3f
00000020: 2008 14ef f050 c83f 322d ae4a 0aa5 c63f
00000030: 4ace aa43 76ad c63f 9a9d babf fbc3 c5bf
00000040: 30dd 4d61 edcf c13f bd4c 2e79 932c c5bf
00000050: 3848 c6fb e8ca a83f ace9 9b5b fe4d bbbf
00000060: 38b5 7f17 07ce b43f 68fc 17cf 4634 a7bf
00000070: 44a1 2a44 83b8 b13f 4a5d e090 8af5 c53f
00000080: 80e3 af84 d57e 913f fc84 ee69 c43b ab3f
00000090: bebb 90a4 1baa b9bf 88a4 f766 31c5 a03f
000000a0: 77d6 ed76 6c4b b1bf 2450 ab6b 44f5 b23f
000000b0: e640 f241 6d51 c7bf 0020 9920 2090 96bf
000000c0: 3f7d 3409 d1a2 b3bf 3e3f 1978 6aec c2bf
000000d0: 9c16 cf17 1f61 b93f 049e 9d51 271d c83f
000000e0: 8c84 52ca 3792 adbf d469 7bd7 dba4 c23f
000000f0: d465 f5a8 3ac1 bc3f 76f4 1d1f b8c9 b3bf
00000100: d899 419c c9c3 c13f 5863 b8bb cd1e b13f
00000110: b813 dcbe 8b74 b53f 88a7 7105 ab69 983f
00000120: 48f6 e01a 670c b43f 4842 6168 7a67 a43f
00000130: baeb de34 bf62 b2bf f0e7 9b03 563a c63f
00000140: 7894 4be3 b0af 963f 5474 ae15 357c bd3f
00000150: ece8 fc96 24a7 c53f 336c 3e62 e606 bcbf
00000160: c455 6515 1a7e b0bf ac06 1d03 d4eb b53f
00000170: f8e9 ef66 118e 9e3f 9481 1a5d a8b0 ab3f
00000180: 0008 c511 19b7 2cbf c000 a2e3 8ee9 9a3f
00000190: 1429 4e2f e01b bb3f a81a 636f d5f3 ae3f
000001a0: 122d c49b 0236 c73f 60c0 9c98 303b 713f
000001b0: 7103 5a99 18da bdbf 68c5 6085 1071 983f
000001c0: f64b 7cb3 6167 bebf 5822 74c4 0b30 9dbf
000001d0: a2bf 1efc a849 c03f f025 603e 6ee6 b83f
000001e0: c0a2 8b58 c49e 903f 4847 650b 5cf1 9bbf
000001f0: 94f9 fecc cf5f b13f 1815 adf9 c989 a13f
00000200: 6897 d04b 9870 92bf b453 da14 67ff b2bf
00000210: 3d1c 0de2 b4e0 b7bf 1617 4dac 67ba c6bf
00000220: 8c99 2fa8 6fd3 c43f 401c e9ba 65c5 6ebf
00000230: 9d78 3228 cfe7 b9bf 9e56 0b30 da83 c5bf
00000240: 46dd 4efb 4d5f c2bf 80fc 0d62 bc81 6cbf
00000250: fea4 6a8b 14d5 c73f 9256 8434 d317 c4bf
00000260: 3336 b9c0 f4d5 c1bf c8df 0244 13cd 9e3f
00000270: 946e 84bb 889f a8bf 80b9 6c77 764c a9bf
00000280: e62b f9c3 6edb c43f 7449 7bf7 2b8b b03f
00000290: 24f7 4266 58f8 b13f 807f 6799 5c4b 6a3f
000002a0: d048 05d4 37a6 933f 7062 9b75 a116 8fbf
000002b0: f8bb 8cf7 1497 b53f 2446 33bb 345c a9bf
000002c0: 30ed 6476 816c b6bf 5e3a e156 d37c c8bf
000002d0: 70ae a4de 0c48 abbf 2cca c6d4 2b95 c6bf
000002e0: 336d e953 bb8f b3bf b4db 1801 9057 b63f
000002f0: d913 49c2 9890 c4bf e4a2 b8d7 dc1c bc3f
00000300: 0216 56b4 6ef7 c53f ab33 2522 3bdc bbbf
00000310: 7078 b4d2 8671 8bbf f4bc 7746 13d8 b53f
00000320: ed1a e154 f173 b9bf 5a84 637a 7772 c83f
00000330: 2464 969a dc71 c73f faa1 2faa 68dd c1bf
00000340: 2c43 b685 c927 afbf aeea 220b b7fa c0bf
00000350: 68a8 9a71 0254 c13f 4462 8d70 4583 a93f
00000360: 2e10 5ec6 f9a0 c1bf 789a ef37 6a2d b43f
00000370: 0031 9b2c 162d 7cbf 308b 8df8 7f34 babf
00000380: 5a1d 1257 49bb c7bf 8058 d6ac 56e4 633f
00000390: 8878 dd47 650c adbf fbd0 1bc9 f8a8 bcbf
000003a0: 7c2e bb96 189a a5bf 70a2 57ef 8a97 83bf
000003b0: 36f1 c83a e2d4 b8bf c49e 5133 7ea8 b43f
000003c0: a755 b464 07df b5bf 6046 e6c5 bfe3 783f
000003d0: 8064 0242 dcda bd3f 6c42 7819 186a c7bf
000003e0: 58af 3841 ba05 a03f 5d85 5681 50a7 c1bf
000003f0: 8030 7708 aff1 5c3f 9036 e5b2 2dd1 b3bf
00000400: 3a8a 5116 4560 c53f b8e6 de20 7564 bc3f
00000410: 10e7 dea2 9260 b43f c913 cce9 040c b3bf
00000420: 0072 965a ac2b 393f 268a aa60 0d19 c5bf
00000430: 1a22 c91f 068c c83f aa2f fbd7 91a9 c6bf
00000440: 6aac 5c42 eb94 c2bf 2434 f05b 50e6 b83f
00000450: 147d ba6a a30e c33f af11 d242 86a5 b8bf
00000460: ded2 6bc2 001c c8bf e088 309c 233e 91bf
00000470: 6841 9b0e 11f9 b93f b00b 006f 2350 9ebf
00000480: 0d15 cc8b ef07 c8bf c89c a657 4d6c b53f
00000490: daf1 ab3e 5721 c03f 6467 679d b505 c03f
000004a0: beed 45ba 019a c23f 1019 7a6d ff98 823f
000004b0: 503d 885d 0827 b1bf 7239 4086 f4f2 c33f
000004c0: 50fd 9f6e fe97 86bf 3a34 181b 5a7c c33f
000004d0: 6051 c09f 4608 a13f 24e5 e36c bf7e ab3f
000004e0: abe7 8711 7550 c2bf b05a b9da 15f4 97bf
000004f0: 97f9 a2a9 ae76 c8bf a26e 5a20 a1bb babf
00000500: c833 906e 95f4 9bbf 7879 257a d061 9cbf
00000510: f0f7 fbab 6624 c33f 0a54 0188 61b0 c6bf
00000520: 612e 5204 5440 b5bf 6434 f1f2 260d b33f
00000530: 1445 fd17 81be a93f 68c8 32eb b013 b73f
00000540: d853 7ad7 8056 a1bf 887a b215 7c5f a63f
00000550: 8442 9586 5d82 b03f 32c4 fe44 2568 b1bf
00000560: c016 3ade 30dc 7fbf f472 95c5 b6dc ab3f
00000570: d893 6c51 70c4 a9bf 0824 c1eb 3c65 973f
00000580: 601e 155a 1112 a33f e0f8 42b8 87e1 98bf
00000590: 4a10 006a 35fc c03f 9876 517c bfe1 c13f
000005a0: 3e17 9a78 b54d b0bf d016 77e1 00f9 82bf
000005b0: f8fd cf75 1ca1 9c3f 3cef 7d31 e8e9 c1bf
000005c0: f0e3 5a0a 7085 be3f 453e 04ff 8885 c7bf
000005d0: d1c5 4809 2e7f c6bf 5891 e37b 6117 b93f
000005e0: 1e5c 8cb5 4e83 c53f 4056 baf3 2d3e 76bf
000005f0: cca0 ecc7 9fa1 bc3f a02a d838 8115 923f
00000600: 8c32 282e aac7 a23f 78df a0ed 0852 b73f
00000610: d87a 4bc2 5090 bf3f 302f c963 e40f b63f
00000620: 90dc 46c7 7198 99bf a631 d961 3563 c23f
00000630: 4986 ebe7 c197 bebf 80ae 3c84 b536 713f
00000640: 88e5 8338 8595 a03f 1a44 7e2c b309 c73f
00000650: 05e5 bd06 a0b6 b2bf beee 0cb2 5346 c73f
00000660: 086d eb6a c828 a6bf 3087 2c04 b03b be3f
00000670: 3c04 5904 8308 c0bf d4f9 a19c 4477 c4bf
00000680: 6896 33df ac80 a9bf b24c f2a8 4201 c7bf
00000690: a8a5 4393 8832 acbf 3f77 1747 891d b4bf
000006a0: fc71 aa8a 07d8 c13f d4dc 707a 8234 bfbf
000006b0: 64a9 bd1a b893 a33f 1023 ba8d 623c b5bf
000006c0: 4a9b 33be 89ff bbbf 6170 3318 b297 c7bf
000006d0: 7298 da68 9e1b c6bf c325 1f3c 883d b6bf
000006e0: 0a78 c820 a1ac c03f c826 e372 567c c53f
000006f0: ece0 b2af ba25 b23f 973a ba49 054d bcbf
00000700: b025 df2c 0c84 94bf b32f 5715 5c25 c1bf
00000710: bde5 4fc5 751e b7bf 0cac b381 a753 c1bf
00000720: b010 3ca3 2a43 953f 6121 b7c6 02a6 b3bf
00000730: 85b5 8b61 0bba bfbf 4a37 41b6 bce1 c13f
00000740: 99d2 385d 4156 c3bf c232 88fb 663f c33f
00000750: a4ed 51e7 ca75 b13f b48c 6328 5338 a23f
00000760: 9419 782e aa69 c13f 3c7c 1064 65d0 bd3f
00000770: 2a0d 355c 5c41 c43f c8cc 4f65 a1c2 9a3f
00000780: 2050 77ff 0f66 c03f 5010 36d4 3ca3 87bf
00000790: 104c 0250 782f 813f f41c 9b5d d06a a6bf
000007a0: 849d 2828 adce b1bf 8cab 48f7 3a0e c73f
000007b0: 40e8 8646 599f c0bf 80e6 2f4f f130 a5bf
000007c0: 2699 0a98 69dc c53f 8cbd 20a3 7ac3 aabf
000007d0: dfa4 2dd5 6c95 c5bf 8859 bc84 ad00 b73f
000007e0: 847f d476 fc2e bbbf 648d e4ea ae59 abbf
000007f0: 78af 6ae2 7216 af3f 885f 4211 efc1 a83f
-0.013142839339428142 0.11759361989141126 0.15576608535209424 0.11666786574372578 0.18997012780897737 0.17691162725928106 0.1771686392217922 -0.17004343854680998
0.13915793658427722 -0.1654228536322985 0.048423081144520486 -0.10665883766697587 0.08126873325064288 -0.04532071378707131 0.06922169126722105 0.17155582498592487
0.017085396026206734 0.05319036286460663 -0.10025189178189373 0.032754463023430935 -0.06755712417165137 0.07405498150484441 -0.18217244834932628 -0.022034170140869946
-0.07670313334209754 -0.14783984054747096 0.09913820582650107 0.18838969693318586 -0.057756179282713566 0.14565608998857604 0.11232344269719557 -0.07729674110119497
0.13878746156406296 0.06687627633108428 0.08380959901485496 0.0238405916283351 0.07831425100536038 0.03985197567147175 -0.07181925812521586 0.1736552732107266
0.022154582856178412 0.11517650393803197 0.16916329739053226 -0.10948028467684949 -0.06442416212424634 0.08562970233927086 0.029838821323190573 0.05408216606633967
-0.0002190797903356967 0.02628157867775438 0.10589409975924396 0.06045405373293039 0.1813357601716708 0.004206838444403699 -0.11660913223205484 0.023868806973216833
-0.11876497871371314 -0.02850359331663052 0.12724792776634525 0.09726609251824647 0.016230647949586396 -0.02728790111115778 0.06786822085175565 0.03425437138370507
-0.018007640483254234 -0.07420963534452946 -0.09327250021770879 -0.17756362832204137 0.16270251953319492 -0.003756235782279599 -0.10119337779403499 -0.1680863127318632
-0.14353346606160694 -0.00347983163413762 0.18619019324732017 -0.15697708191207888 -0.1393419209511407 0.030079175020290255 -0.048092148676201735 -0.049411489561282274
0.1629465538884169 0.06462359230071063 0.07019569870587056 0.00320976339138207 0.019188759151185064 -0.015179883386211318 0.08433657687849905 -0.04953160081062105
-0.0875931657837341 -0.19130937330415326 -0.05328407495320853 -0.176427344221865 -0.07641192244175414 0.08727359797272422 -0.1606627415332287 0.1098154093421147
0.17161353879434676 -0.1088292082178685 -0.013400128655629312 0.08532829733279695 -0.0994253952240844 0.19099324680340396 0.18316228435722437 -0.13956936178080054
-0.06085042721963982 -0.1326512150170251 0.13537626788212553 0.04982964514664848 -0.137725087985133 0.07881797662376211 -0.006878935449730728 -0.10236358469186935
-0.18540302993299457 0.0024282162546099273 -0.05673519613513728 -0.11195330533866248 -0.042191284560968406 -0.009566388539455434 -0.09699834761790246 0.08069599869633765
-0.08543440064052864 0.006076573480088138 0.1166207944064741 -0.18292523616448209 0.031293697797393605 -0.13791853251772582 0.0017666062648116487 -0.0774105607754001
0.16700042333384763 0.11090786030299682 0.0795985839494302 -0.07440214832247628 0.00038407285554756254 -0.16482703418758254 0.1917731909945964 -0.17704985662419165
-0.1451696466477615 0.09726431126200957 0.148884226907264 -0.0962757027755916 -0.1883545827219199 -0.016838604362541143 0.10145670515635674 -0.029602578782952527
-0.18774217916521999 0.08368380918419682 0.12601748047008138 0.12517423806894634 0.14532491298073852 0.00908088257643816 -0.06700184138775467 0.15585190348833639
-0.011032092810636357 0.15223242114044117 0.03326626491630935 0.05370138363100299 -0.143080361900329 -0.023392049288612327 -0.19112189562833912 -0.1044254974353245
-0.027300200341460884 -0.02771688218614929 0.14954837224644235 -0.17725772038343762 -0.08301282029622704 0.07441943579870408 0.0502815572532517 0.09014421217105595
-0.03386309271187543 0.04369724049432927 0.06448921714514638 -0.06799538549854914 -0.007778349772370852 0.054418288821329514 -0.05032683366724883 0.022847129716215192
0.037247221228025706 -0.02429782926696411 0.1326967971400584 0.13970178194260963 -0.06368574327833884 -0.00926399887147103 0.0279583403498673 -0.1399507753047774
0.1192235970764981 -0.18376266910535058 -0.17575622037251873 0.09801301264412154 0.168069685598966 -0.005430392742388046 0.11184118872609189 0.017660159201151715
0.036679571279909146 0.09109550286745882 0.12329582923437543 0.08617999492815609 -0.024995591915026483 0.14365260389093953 -0.11950313484296617 0.004202565239932121
0.03239075007327147 0.1799835173847278 -0.07309913792223106 0.1818337077510161 -0.04327989869281096 0.11809825994398859 -0.12525975906649645 -0.1598897709663577
-0.04980983948352674 -0.179725964063072 -0.05507303998622187 -0.07857568727146445 0.1394051959113226 -0.12189498414305727 0.0382363827364596 -0.08295265159734933
-0.10936795133202995 -0.1843168848198529 -0.17271785850352078 -0.08687640636266906 0.13026823139892968 0.16785698518497427 0.0708882025672925 -0.11055024194704753
-0.02003497146487171 -0.1339526275827417 -0.0903085333556168 -0.1353654273328576 0.020764032567072988 -0.07675187446068811 -0.12393256312835461 0.139701451293542
-0.1510698037324303 0.1503723838981355 0.06820362231694915 0.03558597438839098 0.13603713292122832 0.11646112149217996 0.15824465277010208 0.026133081253601614
0.1281147000687506 -0.011541819788142643 0.008391323033981407 -0.04378367560053134 -0.06955988150058628 0.18012177538306806 -0.12986293739032995 -0.041389027515788435
0.17078895496269658 -0.052272636807511125 -0.16862259301277668 0.08985409250849419 -0.10618570233464025 -0.05341860406249557 0.060718145502817344 0.0483545979088254
