AlexNet-19-112/case/initializer/conv2_mutated/weight.npz (npz, 5066 bytes, 1 tensors)

matrix f8 [6, 4, 5, 5]
000000 e7 67 54 93 3e ca c0 3f 16 fb c3 60 28 3d b0 3f
       0.13117201036294476 0.06343319284858881
000010 30 5c 88 b5 36 30 a6 3f c0 93 06 2e d4 68 7a bf
       0.043336591396091584 -0.006447628810211492
000020 58 b6 ec 93 3c 09 96 bf 00 85 02 cc db cc 59 3f
       -0.02151960995541055 0.0015747209982140409
000030 e9 ec 03 a3 d2 0d c1 bf 9b 72 42 08 e1 0d c1 3f
       -0.1332343383763608 0.13323605445193185
000040 a0 74 66 6b 0f 0c 8d bf 14 ac 4e 63 8d a5 af 3f
       -0.014183159318060412 0.06180993878600574
000050 e1 c9 9a 6d d1 34 c2 3f 58 22 7d a6 60 7a b5 3f
       0.14223687984265523 0.08389858307521914
000060 58 9a 2c 8c 16 17 9d 3f 6c a5 4a 24 52 04 a2 bf
       0.028408386521869694 -0.03518921559345753
000070 e0 0d dd fe d9 c8 85 bf 1e 56 f3 ec b6 75 b9 3f
       -0.010637000170055921 0.09945243153500669
000080 08 26 24 7f a4 0c 96 3f c9 44 ae 48 a5 40 b1 bf
       0.021532602558215458 -0.06739266418869073
000090 f6 13 5e 83 f0 9f a8 bf 33 ac 41 5b e0 ad c1 3f
       -0.048095241581030665 0.13811878639111938
0000a0 04 11 f2 ff 26 a0 ac 3f 02 57 17 55 e8 b3 a2 bf
       0.05590936540923688 -0.0365288356658038
0000b0 1e 47 05 c3 9c a1 b4 3f 90 a5 24 fd 60 9c 8e bf
       0.0805910087704231 -0.014946706509891411
0000c0 70 c2 bd 13 56 7e a7 3f 54 35 49 8d 69 87 a5 3f
       0.045885744008846596 0.04204873895342112
0000d0 91 32 bb e9 8c 1c c2 3f f0 8b 72 6c e0 82 81 3f
       0.14149629032762737 0.00855040865855547
0000e0 6a e8 b5 c4 da d4 af bf 7a 83 55 92 97 60 b6 3f
       -0.062170826447030716 0.0874113781224092
0000f0 68 eb 70 47 26 68 b6 bf 8e b5 87 75 c9 b4 b1 bf
       -0.0875266956726769 -0.06916483992946196
000100 42 1a 48 c2 16 8d b1 3f ee 18 10 49 2e d2 b1 bf
       0.06855909579471933 -0.06961335452806214
000110 68 34 0f 19 1d f8 b5 3f 2a 26 ef be 52 0a b9 3f
       0.08581716405679318 0.0978137699268237
000120 00 00 68 62 36 76 40 3f ca 67 28 9c de f3 be 3f
       0.0005023732708764328 0.12090865433165657
000130 f6 35 9b b3 6e 7f b2 3f f6 d6 e5 28 4f 48 b2 3f
       0.0722569645397114 0.07141585110170098
000140 90 fa d9 91 53 cb 86 3f e6 f3 69 72 c0 f4 a1 bf
       0.011130001915487214 -0.03507043263105185
000150 22 80 c5 6e e2 9d bb bf 7e 91 e0 69 c9 12 b1 bf
       -0.10787787632352822 -0.06669291338818614
000160 54 95 96 00 be fa bf bf 9e 5a 62 58 9d 01 c0 bf
       -0.12491977228508705 -0.1250492745936826
000170 09 e9 3e 91 17 1f c2 3f a8 37 88 89 aa e8 a6 bf
       0.14157385437085448 -0.044743851936899504
000180 78 a2 d8 0d 4a a9 af bf 40 11 3a a6 27 91 7a 3f
       -0.061838449659551153 0.006486086731119223
000190 32 54 a2 b0 85 2c b4 3f 14 60 1b ac 18 26 ae bf
       0.07880435526233567 -0.058884402283809006
0001a0 6a 3b bb 65 88 aa bc 3f 4a 17 97 77 a5 78 b6 bf
       0.11197712405849605 -0.08777841729815097
0001b0 22 dc 2c 74 10 52 c1 bf 90 78 f8 2e 67 1b 9f 3f
       -0.1353169028531918 0.030377971879822996
0001c0 de 89 ea 18 95 90 bf 3f 30 3c d3 67 93 86 9b bf
       0.12329990251831854 -0.026880553447707622
0001d0 28 c0 c2 d4 1e b7 95 3f 08 df 24 5e 60 c8 b7 3f
       0.021206361518750466 0.09290125177801312
0001e0 88 33 2f fa 8f 71 96 bf 06 58 46 f1 de e8 b8 bf
       -0.021917581219713905 -0.09730332746980261
0001f0 c9 98 a3 a6 d9 9c b0 bf df 67 8d cf 67 e7 b0 bf
       -0.06489334410034354 -0.06603096787640038
000200 ec 79 81 c5 26 96 b1 bf e0 9b 53 9f b8 3d b5 3f
       -0.06869737932127123 0.08297304048356535
000210 59 d6 b9 80 2b ce c0 3f 5e 85 8b 72 21 26 b5 3f
       0.13129180703588153 0.08261307760723954
000220 b8 4b 5a a3 09 51 a7 bf aa 59 85 bf e4 fc bf bf
       -0.04554014319469196 -0.12495259929469307
000230 d5 af 4a 7f 13 8d c1 bf ad 90 92 10 4b c7 b2 bf
       -0.13711780276696453 -0.07335347323038617
000240 54 d2 dc f2 a5 ed ac 3f 9c d7 e5 39 75 fb b3 3f
       0.05650061216002614 0.0780556932785132
000250 d0 5a 5d 4c d2 cc ae 3f c0 21 37 8c 34 a6 80 bf
       0.060156413862093694 -0.008129511384041943
000260 d8 34 bf e3 b4 d5 b5 3f b2 06 ef 71 ce 44 bc bf
       0.0852921539328294 -0.11042490274032948
000270 ee a9 6d 8a 2c d7 a4 bf 56 e4 cc bc c8 d2 b8 bf
       -0.04070414724158754 -0.09696631059058922
000280 c1 aa 84 8e 63 c1 c0 3f 00 ec 3c 59 38 1f b1 bf
       0.1309017606630132 -0.06688263109838033
000290 a6 09 78 10 d9 50 be bf ec a2 8f 2f f2 1b a4 3f
       -0.1184211411673802 0.03927571135119998
0002a0 5e 67 88 c5 5e 0a bf 3f ea 6a 1d bd bb cf a8 bf
       0.1212519867189292 -0.048459879718128665
0002b0 ec d5 b1 a9 a9 b9 bf bf 1a 06 e6 3d dc 54 a1 bf
       -0.12392673867164888 -0.033850557857487654
0002c0 05 3a 15 49 14 8a b1 bf 1a c2 7a 59 c1 ce bd 3f
       -0.06851317199946301 0.11643608507689188
0002d0 e9 fb 22 76 3d 6d b9 bf da 38 35 f2 3a 0d b5 bf
       -0.09932312139697753 -0.08223312772063043
0002e0 a4 c6 67 0b 4d e8 b6 bf aa 5b b0 20 89 10 ab bf
       -0.08948213127566845 -0.052860532036155775
0002f0 b8 4d 63 8f a5 cb 96 3f 00 f9 87 28 3d 87 a6 3f
       0.022261225582793392 0.04400054092183048
000300 9e 6c 9f 53 fb fa b8 bf b7 aa 75 ef e6 8c c0 bf
       -0.09757967750140259 -0.1292999905811791
000310 4e 4c d2 ec af 4f b3 3f fa 7d b2 67 8c 04 af bf
       0.07543468028807007 -0.06058157697520623
000320 50 01 3d a0 0d fb ab 3f f0 9f 18 06 69 03 c3 bf
       0.0546497591117282 -0.14854157254853773
000330 ec 8f 8b f4 67 97 c3 bf 40 11 f0 80 b1 80 70 3f
       -0.153058046728915 0.004028981565174228
000340 04 89 fc b8 00 20 b1 3f fa 38 be 45 2c be bc 3f
       0.06689457432051787 0.11227680876456594
000350 70 1c 1c 45 3a da b7 bf b4 62 73 95 c0 b2 a9 3f
       -0.09317363917590327 0.05019189667081517
000360 70 96 ff 0d d4 04 87 bf a3 eb 52 df 8b 90 c2 3f
       -0.011239678075024545 0.14503620533454606
000370 c4 b7 67 19 84 a2 a6 3f 65 6d 13 f3 c4 4b c1 3f
       0.04420864877816613 0.13512479657115786
000380 f6 4e 8e 0d de 00 ab bf 6c 42 ee 0b 9b 39 9f bf
       -0.05274099269368364 -0.03049318561858387
000390 e3 84 b1 e5 da 9a c2 3f c4 22 66 25 25 94 ac 3f
       0.1453508016157122 0.05581775743036624
0003a0 42 98 4b 9e 4e ed ac bf 3d 67 12 28 a6 0d bf bf
       -0.056498009513049854 -0.12130201795880864
0003b0 aa 04 bb 89 f8 08 b8 bf d7 45 12 4d 1c 8f b7 bf
       -0.09388688433229456 -0.0920274437105698
0003c0 40 41 bf 3a 18 cc 64 3f 47 22 0c cd df 8f b7 bf
       0.0025387261611983514 -0.09203909641304008
0003d0 f7 52 1f e4 4f 97 c1 3f 6e 0b b0 05 d2 0c bf 3f
       0.1374301780585012 0.12128937376841772
0003e0 22 47 e2 ff c7 6c b5 3f 46 17 4c e9 c9 1b a6 bf
       0.08369112012067295 -0.0431807610785158
0003f0 5e d3 d8 41 f6 e8 c1 bf 60 45 9c e9 93 fc be bf
       -0.13992193427261673 -0.1210415311181996
000400 64 20 ae ef 67 b3 b6 3f 48 36 5e 29 fa 90 94 bf
       0.08867501832549035 -0.020084294104483896
000410 46 f4 d4 8b dc 4b bf 3f c0 ab d9 c7 6a a5 b8 bf
       0.12225130475867826 -0.09627406481892731
000420 e1 7a 0f 5f bc 3d c3 bf 20 e3 24 4d d1 47 78 3f
       -0.1503215278780408 0.00592786558473149
000430 44 a4 a4 f5 3a 8a a3 3f 79 07 a3 cf 6c c0 c3 3f
       0.038163988576635194 0.15430984629170633
000440 4c d2 85 35 3a b6 a0 bf 56 46 be f0 7b fb c0 bf
       -0.032640284570253 -0.13267468695680645
000450 8c 19 bf 68 c5 2e a2 3f c1 61 a9 04 65 c7 b0 bf
       0.03551308540004347 -0.06554252017793429
000460 1e 75 15 3b d3 62 be 3f 9c 71 71 45 35 74 b2 3f
       0.11869545166469606 0.07208569474591403
000470 90 9a 42 55 e7 94 b9 bf 00 a8 3a 81 69 d9 81 bf
       -0.09992833930537359 -0.008715461975345562
000480 ec 14 94 ef 7b 6d b6 bf 98 91 48 3d 82 e5 c2 bf
       -0.08760809516032325 -0.14762905113560687
000490 d6 27 09 84 8d b7 b7 3f 24 e0 fa 2d c6 d4 b8 bf
       0.09264454339532277 -0.09699667570646447
0004a0 12 f3 53 31 f6 bd b2 3f 46 bb db 9b 29 69 b8 3f
       0.0732110853604804 0.09535465293059273
0004b0 c0 ca 10 b4 12 69 9c 3f e1 93 c1 ce fe 93 b1 bf
       0.027744571914989136 -0.06866447971113089
0004c0 26 f9 ac f5 27 99 c3 bf d6 02 41 25 92 96 b2 3f
       -0.15311145301706935 0.07261002931137325
0004d0 21 43 fc e8 cb f8 c2 3f d5 e3 96 73 be 6a c1 3f
       0.14821766735305977 0.13607006687177994
0004e0 1e d1 91 7e 2e d7 aa bf 85 80 47 18 52 39 c0 3f
       -0.05242295546568897 0.1267492884208005
0004f0 6a 35 10 fa ff 6a b8 3f 85 b3 e3 07 bd ea b0 bf
       0.09538268904744532 -0.06608182375539513
000500 d0 31 ad 42 a3 3d 9b bf b2 a4 dd c1 69 ca bc 3f
       -0.02660231680356323 0.11246357901622409
000510 b3 e0 ab 71 bb ad c2 3f 00 88 66 56 14 9e 8f 3f
       0.14592688608514023 0.015438231360182186
000520 5e dd 17 b3 52 a7 bc 3f d0 4d c8 d8 70 12 8a 3f
       0.11192814705269913 0.012730485549616782
000530 84 dc 2a 22 4a d7 b3 bf c4 c6 b5 f2 31 e5 a3 bf
       -0.07750380834737497 -0.03885799491662348
000540 0e 95 ef 16 04 f5 b6 3f 26 3d a0 9c 37 33 be bf
       0.08967614707906454 -0.11796901296496695
000550 48 88 49 0f bb e0 93 bf 3c f7 f0 42 1e 61 ae bf
       -0.019411967094477484 -0.05933470313219266
000560 9f 51 81 03 51 6c c1 bf c0 48 31 9b e8 a8 9d bf
       -0.13611805602216706 -0.02896464774341534
000570 de 91 2d 79 d6 8b b9 bf 45 3a a7 ca 58 09 c2 3f
       -0.0997900052876228 0.14091024298837077
000580 4a b0 a5 94 49 d5 c2 bf 36 96 e4 6a bb 2c bb bf
       -0.1471340156380186 -0.10615130767526967
000590 26 46 2b 92 24 a3 be 3f 5c 74 fb a0 bc 57 aa 3f
       0.11967686241703088 0.05145062890162741
0005a0 ec 0e 27 fa de 02 b0 3f 10 61 24 a8 eb 85 a4 3f
       0.06254380805244936 0.04008423259273475
0005b0 58 11 af 67 4b 77 98 bf 68 bb 83 1f 8c c3 96 bf
       -0.023892572596893785 -0.022230328963753904
0005c0 16 f5 38 1b d1 df b0 bf 3e e4 ec 46 96 b1 be 3f
       -0.06591517366992536 0.1198972628743755
0005d0 0a bf 08 d8 2e b1 bb bf c4 04 29 39 aa eb a5 3f
       -0.10817234777709586 0.04281360576397611
0005e0 84 b2 fe 86 93 66 bf bf 6c ea 2b 03 0a 1f be bf
       -0.1226589397981091 -0.11766111924581829
0005f0 7f 83 18 2b 6f 6f c3 bf df 2f e7 ee c8 37 c3 3f
       -0.15183820347104057 0.15013991990269823
000600 79 0a 9a 94 fc f0 c2 bf e0 33 a8 9a 64 fd bb bf
       -0.1479793286890361 -0.10933522010618857
000610 84 2a 39 54 1a 1f c0 bf da d6 dd 3b 9f d6 bf 3f
       -0.12594918358293594 0.1243686219366639
000620 ff 74 dd 33 8a 52 b1 bf d4 68 3f 8e 42 7d b4 bf
       -0.06766570821988081 -0.08003631565898967
000630 c2 26 b5 8d 1c 55 a5 bf 48 79 d1 44 19 73 9b 3f
       -0.0416649744971216 0.02680625422032648
000640 a6 f4 b2 8b 09 af a0 bf ee c7 c3 af cb 75 bc 3f
       -0.032585428526979585 0.1111724189866263
000650 9c d9 b3 3a e8 77 b0 3f f0 a0 32 78 9a 5c 92 3f
       0.06432963784377538 0.017931378923692287
000660 0e 8c 79 2f 3a 9c b2 3f c0 c9 d1 66 cf c6 b6 bf
       0.07269633921673366 -0.08897110233537031
000670 c8 b9 8e 13 18 91 b7 3f 98 b2 fa a3 69 4d b4 3f
       0.09205770947912761 0.079306223424917
000680 fd 43 aa 89 8d f2 c1 3f 3a 36 d0 c5 76 1d bb 3f
       0.1402146265213843 0.10591833428790035
000690 d4 8e 71 2e db 04 a2 bf 2f 35 5e 17 54 fe c2 3f
       -0.035193299693472874 0.14838648930564477
0006a0 9a 9f 0c 30 10 05 bd 3f 41 3d 9a 83 70 fd b3 bf
       0.11335850880698076 -0.07808592999412146
0006b0 46 1c a0 18 43 05 bc 3f 0a ce b1 c1 79 07 a8 bf
       0.1094552931900675 -0.046932034391741054
0006c0 ec 81 f5 d6 1b d4 bb bf 76 53 f6 b0 6f f0 b0 bf
       -0.10870527265570445 -0.06616876669279556
0006d0 70 e6 22 bc 9e 5e 95 bf e0 0c f5 dc 8f e1 b3 3f
       -0.020868759377413004 0.07766055244887893
0006e0 4e 11 22 d1 98 23 bd bf 34 29 71 8a 4a 4e c0 bf
       -0.11382441621578218 -0.12738925704827297
0006f0 28 df 30 aa aa 30 91 3f 54 eb 02 75 e8 66 bc bf
       0.01678721107256745 -0.11094525200580324
000700 2c af 53 10 d9 2b b7 3f da 21 d8 10 51 29 b1 3f
       0.09051281593900445 0.06703669224965073
000710 50 b4 51 d2 13 32 a6 3f b0 22 9b 88 03 5e ad 3f
       0.043350810455060285 0.05735789339593589
000720 df 78 c4 e4 bb a2 c1 3f 7e 51 29 d7 bd 8e b5 bf
       0.13777874632155027 -0.08420931342090474
000730 3c bc ec 04 8c dd a7 bf 3a f5 bd 70 56 1b ba 3f
       -0.04661214408985656 0.10197963955393599
000740 35 0c ec ed e1 32 ba bf 98 b2 9d 2f 59 86 9c bf
       -0.10233890589374613 -0.027856248408556356
000750 38 df 29 79 72 d2 92 bf a2 5c 16 21 f3 94 ba 3f
       -0.018380917210804898 0.10383529241367964
000760 8e 4f 75 ab ca a3 b9 bf d6 61 fc 24 b1 82 aa bf
       -0.10015551267616571 -0.05177835060584683
000770 f0 f5 1d b6 19 26 87 bf 06 a6 22 41 ff 8e b7 3f
       -0.011303139562865078 0.09202571239679722
000780 d0 33 c7 b9 5c dc 92 3f ec db 3c 7e ff c5 bd bf
       0.018418740118977983 -0.11630246002174233
000790 70 6a 0d 6e 0c 9a 8a 3f 10 d4 cb 4e 3c 95 b5 3f
       0.012989136799366835 0.08430840419517005
0007a0 d4 6e eb 4b 25 25 b4 bf e0 f3 4a d0 38 2e 73 3f
       -0.07869179824359246 0.004682752540870333
0007b0 c0 2a a9 ab 7d 7c 87 3f a0 73 64 a9 33 bf b4 3f
       0.011467916299030434 0.08104250798756008
0007c0 85 8f 35 03 be be c0 3f 08 eb ee 68 e0 1d 94 bf
       0.13082099110317472 -0.019645220188730966
0007d0 b8 52 90 f1 8a d4 90 bf 70 d6 9b 10 42 c5 b5 3f
       -0.01643578624141881 0.08504116921889149
0007e0 17 69 67 08 a5 b5 b8 bf c8 7e be 0f ca 47 a3 3f
       -0.0965216775433969 0.0376570839136981
0007f0 4c 73 c5 7e bf 65 a1 bf 10 1f 65 c7 2f e6 ae 3f
       -0.033979400849352887 0.060349934663973426
