AlexNet-19-112/case/initializer/linear1/weight.npz (npz, 83210 bytes, 1 tensors)

matrix f8 [864, 12]
00000000: 83c5 bded 63fe a9bf c809 bd3a 1694 ad3f
00000010: 3304 1e26 85b5 b3bf e87c 060e 7902 963f
00000020: 129e 002c e7fe 9dbf 0032 e4ed 54fa 723f
00000030: d42b 898c 292d b03f fc3c 13ec 1791 9fbf
00000040: 8ca7 814c da54 b3bf f865 d7f7 b2b2 80bf
00000050: 246d 4b3c ca68 a83f 961b fabb 94aa a1bf
00000060: 0048 96da 540d 603f cc69 3343 2c75 b13f
00000070: d488 1d5e 6b2b b03f 5888 f813 8c8e a63f
00000080: 72d5 7b25 0848 b1bf c799 a72a a705 a9bf
00000090: c017 3de0 d9d4 8abf 7c24 2338 d192 90bf
000000a0: 0c5c fa18 74b6 943f 6ce0 6fb8 2079 a5bf
000000b0: 8e13 de47 dfb4 b2bf ada3 4092 4779 b0bf
000000c0: 9867 b073 fa5a ae3f 0425 685d 4e7a ad3f
000000d0: 18ea b1de a3a9 b13f 9c4a 1f6d b9fd b4bf
000000e0: 80c0 1297 7b02 6dbf ded3 b020 4c74 a1bf
000000f0: 04b7 e90c b4e2 9f3f da46 9a14 ec39 aebf
00000100: f61b d6c6 db5d b33f fa5b 6876 1e4b b33f
00000110: 4027 245e f154 7dbf 805c e202 16cc 4a3f
00000120: d66b 77cd 3299 b03f 40ba fca0 539c 6c3f
00000130: fcbe a769 d254 b03f 503b cb5b f9f2 9cbf
00000140: cc77 3b42 37f0 98bf c449 211f 06c7 a23f
00000150: 1ff5 838e f36a aabf 341c 0e49 980e af3f
00000160: a1f7 477c 82b0 a5bf 5e88 fee7 1430 b0bf
00000170: 7c1c df7f e192 b2bf 24d8 5dd7 2211 aebf
00000180: 589a 946e 64cf a83f 925a 31d1 4749 a53f
00000190: e002 8468 8cee afbf 40a1 91de 6854 573f
000001a0: 205c c483 7071 ae3f b047 8931 8b85 77bf
000001b0: 2099 e565 333d 7bbf b006 4f9d fff7 a23f
000001c0: 888d 4dcf 4d4e 8a3f 401e 5404 37bd 883f
000001d0: d055 07a2 7c53 8cbf d8e6 3a63 9d8a ac3f
000001e0: 3824 402f 6d77 95bf bc50 e904 7f53 a9bf
000001f0: 5c89 7ebd 61ee ad3f 6832 417a 7ff1 90bf
00000200: d441 6a4c 7dd0 923f dea3 f159 9605 b03f
00000210: 0473 dcdf 7917 9b3f d0b7 f6a1 18d7 793f
00000220: ab73 e3fd 3257 b1bf 9f93 40fd d633 b2bf
00000230: 3207 955e 870c 9abf a515 6e06 47a8 b1bf
00000240: d045 8702 6b86 9fbf efcf 8583 e631 aabf
00000250: 1aed b109 7b83 b3bf d296 3428 3558 9fbf
00000260: 2839 ff5d 5eee 8abf e055 b255 3646 6ebf
00000270: c0d2 e561 e47d 52bf b8e2 3a53 a4d7 ae3f
00000280: 2e42 3880 46e5 b4bf 7023 187b b2e2 863f
00000290: b818 494e 0e6b b03f 703d 79ae 7307 813f
000002a0: 60f0 ff55 e8b8 613f 50be 28c4 311a 9f3f
000002b0: b249 14c6 8bca 9ebf 00bb 84bd c708 42bf
000002c0: 304d 3702 b6a3 9c3f 7ac2 1e31 d658 b2bf
000002d0: ac86 efc5 9cd0 96bf e8d9 228a bcf1 b13f
000002e0: 0318 9e6a b5a2 a5bf 8031 1b5d d615 4dbf
000002f0: 38a8 d28b 85b8 8d3f 9eaa f1ae 4afa a33f
00000300: b841 ec93 f954 8d3f 5e22 e628 aa72 95bf
00000310: 80ce efb2 5343 57bf 98e5 e1d1 108d 983f
00000320: dcff 8136 fc7e b43f b081 ab20 e3ce 703f
00000330: d85f 5fc8 675e a9bf 4cfe f336 daa0 9e3f
00000340: a62c 6d4f 7703 b0bf ee2e 3bc6 d300 a8bf
00000350: 4e5e 1b54 5232 abbf 20c8 412c 7b2c 90bf
00000360: 2a0d e25e c660 a2bf 2477 4769 70b5 a93f
00000370: 210e 1278 28b3 b2bf fb72 4f51 2e1e a7bf
00000380: fcf5 3cfc 9bd9 af3f 68cf 0c6c 6143 8e3f
00000390: f4d3 07b6 ca55 903f bce3 c69a 2c21 94bf
000003a0: 344a d13e 9533 af3f 4070 0466 cad1 56bf
000003b0: 7896 bbce 3b97 ad3f 78b2 cd7e 34c3 81bf
000003c0: 46c9 6889 276a b3bf ff32 5981 593a a4bf
000003d0: 69f0 d0d7 509b b0bf 90aa af6c 68e7 8ebf
000003e0: da68 6f99 4d12 b53f 6c85 197c bb28 97bf
000003f0: 50d7 b7ad b07a 933f d471 4529 a29d a73f
00000400: da32 1b15 0604 a13f c038 63ff e62d 513f
00000410: 149a a2f0 b947 b13f 826e 1859 80c2 b0bf
00000420: d440 8cab d205 a63f cca9 7b54 0c5b b23f
00000430: a29d 14a7 ee62 b0bf d0a3 0d6d 9d09 8a3f
00000440: 7a8b 3de8 d812 b4bf 082b ea7c e0c7 853f
00000450: 0b6e f050 3292 b2bf 201e e411 c3a0 ab3f
00000460: c016 a661 478c ae3f 30ea c351 9e03 933f
00000470: c6b0 d40e fa96 b33f ab35 5144 fa81 a8bf
00000480: 54c2 c0ce e467 933f 1812 15d5 56db b3bf
00000490: 6e64 c994 b82d abbf 6275 bf30 9dda 96bf
000004a0: 36d2 2f5a 4e25 b23f 9401 868c b1ea 993f
000004b0: e653 95b4 fb03 b03f 6094 b748 b34d b2bf
000004c0: f066 43be b4e7 84bf 68b1 cded 097a a93f
000004d0: 2e77 867f dfc4 b13f ec4a 1199 6e11 9e3f
000004e0: 5007 9d1b c037 9d3f 583d 3e62 f131 8cbf
000004f0: 5a23 ff25 f042 98bf 841f dd6b 2008 b0bf
00000500: 852e 060c f91a a0bf 0802 ae90 4a17 8d3f
00000510: d016 e290 b536 a83f 6f31 48b7 19a8 a5bf
00000520: 267d bdea 182b b2bf 0066 a546 c0b5 4c3f
00000530: b8d5 9a16 8ece 89bf 304e ef9d 48eb a33f
00000540: 122b 58db a075 a5bf de66 e1de caae acbf
00000550: cb0b b3cf 56fe b4bf d0f5 f7ee f1e8 8e3f
00000560: 00d1 ef10 8e9c 673f 1078 bb3d a7e4 703f
00000570: cc96 5a65 2215 a73f 039a 0bd2 22fe b2bf
00000580: 0898 6a5d 9944 933f 24f8 310a 4f6d 91bf
00000590: 0027 e078 4f57 693f 7dfa 8abb 64e0 b1bf
000005a0: 09bc efa1 1e28 a7bf 78de aa77 7555 8cbf
000005b0: c476 4b10 1899 a23f 1a56 d8cf 8da7 9dbf
000005c0: a42e 3369 a5bb 9cbf 14ed f3e6 4f22 b0bf
000005d0: 2061 3627 e588 a93f 6a7b 061f a61d b5bf
000005e0: 74ab ae14 3437 9b3f 0000 ab01 cdc3 2abf
000005f0: 9cce f3f7 e283 90bf 60b2 daa8 d926 a13f
00000600: 5227 e358 668b 9dbf b4a8 7a1d a296 adbf
00000610: 43d5 a3f1 a6a4 a0bf e035 752c 0aa2 883f
00000620: 00de 45f3 d0fb b13f f5cb ad58 1dba a4bf
00000630: 2086 0b9e ec12 a93f a004 e249 8cdf 813f
00000640: 16c3 d5e6 9be5 b0bf f54f cdc2 3fb7 a0bf
00000650: 3a34 a9bb 94d5 abbf 607b f2d3 aa6f 833f
00000660: 4051 f568 1ad4 973f 74ab 038e c341 b23f
00000670: 401d ec7e 1966 8abf 2062 8759 cbcd b43f
00000680: 3918 b171 ac9a a9bf 9c4e 4556 1fc8 abbf
00000690: bc9d f4c6 550b b1bf 1cef e171 d264 b4bf
000006a0: 6009 7324 7ee3 863f a061 b168 d207 953f
000006b0: cccf 73df 2cda ac3f 8fb2 2a24 63f9 b0bf
000006c0: 5482 70ce a07f a53f 4a7d d01a ff33 aebf
000006d0: 148c 9fac 67d1 aa3f 90f5 3da4 2347 a53f
000006e0: 0037 e4d0 7fcf 603f aa55 1b56 57da b4bf
000006f0: 705a 5a4d fad9 80bf ea64 134d 08cf b2bf
00000700: 581e 0610 eb7b a03f fbe5 8f9d 3a0d b4bf
00000710: 68b2 26c3 d6c6 8dbf 30b2 779c f088 a53f
00000720: 6812 564d 661b 8e3f a07b 458d 96f3 afbf
00000730: d4af dac1 121f b1bf 00a9 8076 8341 463f
00000740: 1045 9334 c21d ae3f 58d3 4ae0 e9e3 a5bf
00000750: 78cf f6c9 4718 92bf a447 1e96 bb4b a73f
00000760: 1b46 f2c7 736e a6bf f88a f222 5ef1 93bf
00000770: e80e c8f1 ad7a b03f 3c89 c6f2 4f2f a13f
00000780: 743a 4eff bb7e b0bf 8094 2e92 a48c 52bf
00000790: a03c fc87 e649 7f3f c4cf bad4 e3c9 93bf
000007a0: 645c d32c 1fa8 9c3f bc61 0b1a 0720 95bf
000007b0: eea2 653d 9d6b a5bf b4d2 664f c381 a2bf
000007c0: 8454 1447 71ae 913f 80df 270c e97b 423f
000007d0: 403e f4b6 6db3 a53f 3ead 7653 94aa acbf
000007e0: c856 c9cd 9bf6 a93f 407e 82d7 9675 74bf
000007f0: 9ae2 1fdd c99a a0bf cbcb 9364 09f7 abbf
-0.050768969317583255 0.05777043787977082 -0.07698852711293185 0.02149380825141814 -0.029292690334982004 0.004633266215261944 0.06318912201929489 -0.030826925071605324
-0.07551349990686002 -0.008153341473120954 0.04767448411959155 -0.0345045546974269 0.001959481935679186 0.06819416657109584 0.06316252753962043 0.04405629867348243
-0.06750536837701818 -0.04887125392615448 -0.013101293712349249 -0.01618506341109026 0.02022725489095127 -0.04193975688389248 -0.07307239059998791 -0.06435057945840468
0.05928785955639099 0.05757374658794315 0.06899475275887601 -0.08199652589909551 -0.003541222941372324 -0.03409040354782865 0.03113824204267869 -0.05903566123482813
0.07565091709521696 0.07536497488796093 -0.007161085932475164 0.0008177859761130529 0.0648376227976962 0.0034925111175632406 0.06379427985643454 -0.028270622470525197
-0.02435385076284273 0.03667468194966575 -0.051597224375635735 0.060658224981175485 -0.042362287207637246 -0.06323366798327032 -0.07255372402060972 -0.05872448805796207
0.0484572777734697 0.041574711118916544 -0.062366855390797005 0.0014239334216431115 0.05945922478183996 -0.00574259159528083 -0.006650162480900584 0.03704832835457006
0.012844665421374982 0.012079648799512843 -0.013831113524171906 0.055745046961829636 -0.02096338845152365 -0.04946515021279782 0.0584593337837471 -0.016546241604645934
0.018373449124341537 0.06258525558372649 0.026456741608046577 0.006308647366877154 -0.06773680399369535 -0.0711035126010544 -0.025438418529353864 -0.06897395998938423
-0.030786201505014266 -0.05116196017743834 -0.07622498499579358 -0.030609922961182097 -0.013149964564857244 -0.0036955891824372727 -0.0011286478325846366 0.06023896709434012
-0.08162346487393599 0.011174578076877245 0.06413354312198549 0.008314994585048224 0.0021633661090146167 0.030373361203770266 -0.030069526638791984 -0.0005503630918946845
0.027968257794623586 -0.07166804026815923 -0.02228016813376736 0.07009485599960608 -0.04225699354633152 -0.0008876129815802852 0.014512103395038264 0.039018949370832376
0.01432223303484724 -0.02094522356631711 -0.0014198605892915828 0.023975622949796355 0.08006264048344697 0.004103553025487747 -0.04954838105157905 0.029910478214331612
-0.06255288781283017 -0.04688131136717098 -0.05311829830833102 -0.01579468209860846 -0.0358945837806693 0.05021239552637116 -0.07304623538407685 -0.04515213720853769
0.06220710233763424 0.014776955709386377 0.015952269897713436 -0.01965779967006019 0.06094042198005348 -0.0013927914188292118 0.05779444597810096 -0.008673105354057173
-0.07583853821487194 -0.03950767234764462 -0.06486993092488692 -0.015089813057746398 0.0823105334851876 -0.022616319131321047 0.019022713282502324 0.04612452272224102
0.033233823849149594 0.0010485416255963526 0.06750070690996096 -0.06546785521680401 0.043013175431157485 0.07170178473066996 -0.06400958613504895 0.012713651552717226
-0.07841258687908051 0.010635141193480205 -0.07254328228048494 0.05396089166066198 0.059663992567079216 0.018568490734631904 0.07652247297363876 -0.04786665042829993
0.018951010817718064 -0.07756560041622895 -0.05308319870227583 -0.022318321323714037 0.07088174535585598 0.025309347345229563 0.06256077917835476 -0.0714981129199983
-0.010207569176077652 0.049759207037683606 0.06941029418382236 0.029363372890950964 0.0285329834798696 -0.013767133532182882 -0.023692848509912913 -0.06262400277512198
-0.03145578643588202 0.014204580822252857 0.04729239839165944 -0.04229812967614321 -0.07097011309587184 0.0008761586043803393 -0.012601003708691091 0.0389044468680847
-0.041913058066788036 -0.05602106066426214 -0.08200590678011037 0.015092744927637819 0.0028822684030221923 0.004124310765943676 0.04508311736326007 -0.07419030788478413
0.018816372229274264 -0.01701854228712575 0.0030933906737161676 -0.06983022288020808 -0.04522796370280708 -0.013834874834500285 0.036324264515980725 -0.028959480105262704
-0.02805956320371074 -0.06302356136795978 0.04987255195300322 -0.08248365647749059 0.026577771913859974 -0.00020419957657757948 -0.01612810743695424 0.03349952875337148
-0.028852080512286556 -0.05778986558773749 -0.032506196019236565 0.01202781627821542 0.07024866046219103 -0.040482441973743656 0.04897250584850732 0.00872716522667566
-0.06600355516071618 -0.03264807942346685 -0.054363868625479886 0.009490332215418895 0.02327004685987899 0.07131597726008271 -0.012890052018987519 0.08126517234575958
-0.05000819099272786 -0.0542611878214789 -0.06657920939743794 -0.07966342239700136 0.011176095473619696 0.020537650718638667 0.05635204532327939 -0.06630534775713158
0.04198935050977029 -0.05899045183491099 0.052378883192226194 0.041558374213290894 0.002052068367567439 -0.08145662166801651 -0.008228259549736466 -0.07347156411869418
0.03219542093853239 -0.07832685801249532 -0.014539411383190884 0.04206039342884471 0.014700698123087011 -0.06240530466560945 -0.0668803904797522 0.0006791965397543731
0.05882079021251674 -0.0427544676107689 -0.0176707474726778 0.0454996701001982 -0.04381143394233452 -0.019475432284376176 0.06437194016330816 0.03356408918922901
-0.06443381293341038 -0.0011321646822833042 0.007638836395712861 -0.01932483659648178 0.027985083685816994 -0.020629988636615457 -0.04183665632701215 -0.03614626259096579
0.017267007792800118 0.0005640876700558767 0.04238455637289151 -0.05598891753046552 0.05070959937135694 -0.004994954324643752 -0.032430942766898244 -0.05461911537886229
