AlexNet-19-112/case/initializer/conv1_mutated/weight.npz (npz, 11882 bytes, 1 tensors)

matrix f8 [4, 3, 11, 11]
-0.03599759806088176 -0.03639587128427243 0.03250895611094477 -0.03425801557596785 0.0063460185753552445 0.016830978275870975 -0.019611455614577153 -0.0363837150325435
-0.06895619014376232 0.07763361737344934 -0.06222166516523813 0.05044563385793863 -0.08285432189275119 -0.00726463231797965 -0.007839688430020322 -0.0019142751985469775
-0.015261290281578313 -0.07814819265239621 0.0024713422103864874 0.058762461357520446 0.006645917025455625 -0.050387838333946534 0.006663909400155876 0.02261492054806881
-0.057163905188526196 -0.02883795109671928 -0.014169878673319064 0.015148902483438129 0.04080890841377566 -0.07736343450765558 0.020413675208181103 -0.014404085690188195
-0.0008287751674974086 -0.0636333914414543 -0.03192196714497376 0.03903594655536752 -0.00745400050275305 -0.01628708001115106 0.030493989577621575 0.03716578655974519
-0.06439201341203384 -0.019851195532865518 -0.06897108647016632 -0.0825323398900489 -0.06773019778501685 -0.020150381052283006 0.05657007834950914 0.017896909402724842
0.018092281865232915 -0.044508643084022026 -0.06715119036841544 -0.0758973431282553 -0.03254279328911343 0.032624937758453085 0.06686698380480793 -0.0016137801888697345
0.04631024429478953 0.05984962266297145 0.06425128136313582 0.05311381889208461 -0.06148127269410013 0.07922944677107854 0.07363357483468808 0.014485610256935053
-0.01812569434843686 -0.031230090986102854 0.032666804979607694 0.05907284543875807 -0.048754426094152856 0.02913976493047013 -0.05881298007675004 0.027395041772825077
0.054292773331990896 -0.05434115928900163 0.0818685183229701 0.06994118161918744 -0.07174116786432706 0.08104459137745315 -0.03190287126519141 0.07955177059143187
-0.08166828780970298 0.007932937742368626 -0.03745943577221988 0.03557873293178726 -0.05979649733754623 0.03779084709250813 0.014828735960704484 -0.06140119288163605
0.00040856125478008765 -0.04023231490524378 -0.0037116178530679778 -0.06748734468923909 0.01597437954663819 0.041775776598279135 0.0528293502338171 -0.036425587971166636
0.02337406720430435 0.06837983537263889 -0.014559281581326008 0.023625547477299377 -0.05443199841718359 -0.009480474648156947 0.07470622818449665 0.0697698602778461
-0.016123374261789156 0.023662548676845876 0.06788480581335393 0.017060497647578887 -0.031518887811836614 -0.05051105253677714 -0.051691847385295954 -0.07519573545892796
0.011410198620758039 -0.07076958224052288 -0.02036923287723924 -0.008482546099113614 0.08237105696754293 -0.02489096394274888 0.04396360198608465 0.05057645848610867
0.0076058604265684115 0.05630539497276407 0.011109530626779981 -0.06732532848040339 0.08367638930165056 -0.025202123923110248 0.06656138571268258 -0.08102471139808731
-0.021899581834366355 0.00905758719281853 0.0403457985092317 0.08404636495881812 0.08393650845818001 0.0676309979570639 -0.0754041588840481 0.054149671516142056
-0.05267310777992704 -0.04811543906218003 -0.029641026442298782 -0.0446495157089425 -0.0725304299133647 0.06376493718995527 -0.05420861071629255 0.055760740651792984
-0.007518012852222172 -0.07536700363487897 0.0034383011034379435 0.0008788616109903086 -0.07006004005088473 0.07328917185210942 0.01934894825186688 -0.03329106606437517
-0.037774206837869674 0.008982815067876043 -0.007337294426573243 -0.0631747144457376 0.006196682068255466 0.06877511190694977 0.0798869941440058 0.05945755540974651
0.08326308016669659 -0.057696011064768064 -0.07811137665398567 0.0021879433956726313 0.041717769170762586 0.08009089840031178 -0.07298537305926488 0.05754752111863176
-0.06841804426040492 -0.07135689835674672 0.04427638594935912 -0.050484679713875664 0.04391938770637954 0.013163666029583049 0.022962544374821633 -0.04174717870810442
0.041146725720014654 -0.011984448588346283 0.029012119094430952 -0.01563790181534093 0.06736741709676095 0.044798803435540324 0.07622253919142011 0.04827252649913394
0.003221306719131539 -0.07323502298916142 0.03798260572326241 -0.03447899634402996 0.01328764573191571 -0.07852779118135397 0.05881540869283078 0.004445558877716305
-0.07915218244484544 0.017550265615597194 -0.051188137270860475 -0.031738896775402724 -0.039276540115146176 -0.038195108240486116 -0.06008477380621088 -0.04760327670491971
0.05158420000183339 -0.027260825716578493 0.07726234012341945 0.0722943501608552 0.06078850585488366 0.017821026448505486 -0.0006647336608771454 -0.004999640735211586
-0.0076535956256153365 -0.05167496755796358 0.010854412099331454 0.07876037814359438 0.0009989130438766564 0.06923029614425211 -0.07181104920536543 -0.0022513067245541474
-0.06768884604324119 0.0005131835136611279 -0.010382520865762745 -0.04259652635354009 -0.033279514956373 -0.0799181042076689 0.030490657943422636 0.02605395521075092
0.05057781973263972 0.00708789075563776 0.0785021690433089 0.016468195164553612 0.04665633679313372 -0.036538353025871516 -0.04961664580858734 -0.05084097063642416
0.07129696362905238 0.009285040225891938 0.04970706957563015 -0.009792174154411845 -0.030085459055702958 -0.05999668096612133 -0.027794776711214664 0.07448036350238252
-0.027042561185417757 -0.024302677497478838 -0.04363737054499601 0.031403759317940316 -0.08401162429163524 -0.007337312140422658 0.0254983838668644 -0.022858571275190614
-0.05922160488478376 0.0024105042856935183 0.04491214179946912 0.027409822832574163 -0.01748167842004117 -0.07479726297503128 -0.0025422491021599436 0.00033619765948846025
00000000: 7fe4 cff4 466e a2bf 3b31 c0c9 7aa2 a2bf
00000010: d6af a58e 03a5 a03f af9d 0c41 448a a1bf
00000020: 20f8 da63 48fe 793f 5ca9 04d5 233c 913f
00000030: ac5c f781 0615 94bf a7f0 57e4 e2a0 a2bf
00000040: 1133 86e5 1ca7 b1bf a26b b0f7 cbdf b33f
00000050: 4787 f9a1 84db afbf 1cab 4a97 02d4 a93f
00000060: 5693 dcda f035 b5bf d02c 92e3 84c1 7dbf
00000070: 2896 572b 410e 80bf 0033 e457 0d5d 5fbf
00000080: 88ae 3bb5 4f41 8fbf 15fd ae1b 8501 b4bf
00000090: 2013 11bf c73e 643f c8a9 8603 1d16 ae3f
000000a0: 3091 6bc4 bf38 7b3f cd57 854b 6fcc a9bf
000000b0: c0ac fe8e 9d4b 7b3f 0454 9fa0 5d28 973f
000000c0: 1ebd 975e 9644 adbf 6250 6023 b287 9dbf
000000d0: 70ea ebeb 1805 8dbf f8ad e445 6306 8f3f
000000e0: 9895 0bbe e7e4 a43f b7da 1d0d 17ce b3bf
000000f0: b026 a48d 52e7 943f 20c0 bea7 e37f 8dbf
00000100: 00da bc1e 4528 4bbf 68b3 2c27 474a b0bf
00000110: a1c3 d279 1358 a0bf f8bc a503 85fc a33f
00000120: 209a 2306 1688 7ebf 581d fb6f 8fad 90bf
00000130: 1480 d7ff d039 9f3f fac2 9bdb 6407 a33f
00000140: 7970 bab7 fe7b b0bf 0090 662e df53 94bf
00000150: b54a c2d0 16a8 b1bf 76ab b0e4 d620 b5bf
00000160: be31 7028 c456 b1bf d068 7c2e 4da2 94bf
00000170: 24f8 e2d8 c0f6 ac3f c832 5642 9153 923f
00000180: 3c4c af7b c886 923f 00d4 de3c d6c9 a6bf
00000190: 9012 8506 d230 b1bf 54d2 961e 026e b3bf
000001a0: ca61 cbf1 72a9 a0bf 5ec6 6941 37b4 a03f
000001b0: 20b2 9fd4 311e b13f 808e 9548 af70 5abf
000001c0: 5889 6ef1 f9b5 a73f e0e2 0718 9ca4 ae3f
000001d0: 7646 2ea0 c572 b03f 08df 3606 bc31 ab3f
000001e0: a642 132f 797a afbf 7e0f c38a 6148 b43f
000001f0: 2c74 cd63 a6d9 b23f 7873 87b2 a1aa 8d3f
00000200: f07a c6c1 8a8f 92bf e0e3 beed c7fa 9fbf
00000210: 3cbd 1a16 b4b9 a03f 3875 7bc6 cb3e ae3f
00000220: 2622 3813 57f6 a8bf 48d8 8e85 d0d6 9d3f
00000230: fc16 0524 bc1c aebf 8c85 f221 720d 9c3f
00000240: 2076 bd2b 43cc ab3f 902b f2bb 9ad2 abbf
00000250: ece5 c4d0 55f5 b43f 8cb0 b24f aae7 b13f
00000260: b90e c111 a15d b2bf 42dd 7b9d 56bf b43f
00000270: 9e09 77b9 9255 a0bf bc72 073d 815d b43f
00000280: 4c53 4381 36e8 b4bf 5842 51e1 243f 803f
00000290: cff7 2217 e22d a3bf f012 c02c 6037 a23f
000002a0: 42d1 f580 a59d aebf 606f b368 5259 a33f
000002b0: 181e f03f 875e 8e3f 025a b926 fa6f afbf
000002c0: 001a 4a3a 85c6 3a3f 8b52 8579 5499 a4bf
000002d0: 40e5 69a9 d367 6ebf 968b 55c2 d946 b1bf
000002e0: a824 e876 965b 903f 605c 8274 a263 a53f
000002f0: 84dd 0bd7 720c ab3f 29c0 25ea 5fa6 a2bf
00000300: 8033 de18 5fef 973f 06a0 a144 5781 b13f
00000310: f8dc f5b1 41d1 8dbf 5c75 0fa7 4b31 983f
00000320: 6e8e 1dca 82de abbf 88df 83c4 7f6a 83bf
00000330: 2624 dc86 f21f b33f 74cc 2304 70dc b13f
00000340: 2c49 9f54 a582 90bf d407 d4c2 fe3a 983f
00000350: 3419 dd0c e660 b13f e0a1 cc9d 4e78 913f
00000360: fb5c b760 3e23 a0bf 22c8 76ad 95dc a9bf
00000370: edb5 fa93 5a77 aabf 6642 9818 0740 b3bf
00000380: a00e 56ef 3a5e 873f 084e 4691 f41d b2bf
00000390: 609b 3514 acdb 94bf 90f8 a810 4c5f 81bf
000003a0: 4403 d003 4516 b53f 146c 6650 047d 99bf
000003b0: 743b 7db1 6582 a63f cc69 4a56 28e5 a93f
000003c0: 800d a49c 5227 7f3f 1c26 fe8b 0fd4 ac3f
000003d0: b839 baf5 97c0 863f cf0a 0494 3b3c b1bf
000003e0: e079 7fdb d06b b53f 1872 28e8 95ce 99bf
000003f0: 52fa cfbe 2a0a b13f 4064 9f15 09be b4bf
00000400: 8045 190f d86c 96bf a8ca 30c6 c88c 823f
00000410: a09d 415a 34a8 a43f a086 d804 1084 b53f
00000420: 00b0 c4ee dc7c b53f fce2 6bdc 4350 b13f
00000430: 0bae 63dc af4d b3bf 847f 8078 81b9 ab3f
00000440: ad41 9636 f8f7 aabf 39d4 683a 96a2 a8bf
00000450: f417 c29c 375a 9ebf 5219 8123 4ddc a6bf
00000460: 3256 71b0 5a91 b2bf 1ac3 dc1f e652 b03f
00000470: ed4a 6024 3bc1 abbf b818 00fb ab8c ac3f
00000480: 609a 4c35 35cb 7ebf 7c2f cf7f 404b b3bf
00000490: 60cd 60d9 a32a 6c3f 80b1 3ef0 6ccc 4c3f
000004a0: 6866 c66c 74ef b1bf c477 4144 14c3 b23f
000004b0: aca7 d0ef 35d0 933f d3ad fdcf 860b a1bf
000004c0: bd81 000e 2457 a3bf 5054 8a07 9565 823f
000004d0: e0ee a6f9 b50d 7ebf 5684 7ad4 372c b0bf
000004e0: c0d8 3a2d b161 793f 7249 6be8 3e9b b13f
000004f0: 5868 395b 7973 b43f e04d f87f 3871 ae3f
00000500: 68ba 47ae ba50 b53f af02 44e1 548a adbf
00000510: e5a5 2c70 1bff b3bf 00a6 8e2a 73ec 613f
00000520: d841 800c 085c a53f 462b 564d d680 b43f
00000530: 1f3b 605e 2baf b2bf b83d 5762 de76 ad3f
00000540: 1b02 8e4e d883 b1bf ee45 c918 7244 b2bf
00000550: c06f 46fb 64ab a63f 29e8 a3c0 20d9 a9bf
00000560: e8ee b71b 9a7c a63f f07d bd58 8df5 8a3f
00000570: 4cc1 7d44 7e83 973f 92ce 80de e25f a5bf
00000580: c021 9c02 2f11 a53f 98f6 fa75 4d8b 88bf
00000590: ecfe ca5a 5ab5 9d3f 74f2 7fd3 6103 90bf
000005a0: d61f 3fb5 fd3e b13f f0a7 4f67 deef a63f
000005b0: 0a94 0b01 5283 b33f 80d8 3735 2db7 a83f
000005c0: c02d 4ae0 9163 6a3f 9106 a9cc 87bf b2bf
000005d0: a2ea cbc2 7472 a33f 419d 6423 3ba7 a1bf
000005e0: 6013 e09e 8d36 8b3f de76 f3b6 651a b4bf
000005f0: 8454 aca1 0d1d ae3f c030 e09f 8135 723f
00000600: 77f4 0143 5143 b4bf 30a0 6b63 b2f8 913f
00000610: a102 0bdf 5435 aabf cbac 52a7 1440 a0bf
00000620: d5d3 96fe 0d1c a4bf a127 8529 4f8e a3bf
00000630: 7b70 f874 6ec3 aebf 6198 42e9 745f a8bf
00000640: c013 ff87 3e69 aa3f bc9c a80b 43ea 9bbf
00000650: 46e2 0af8 76c7 b33f ba5e a0ed e181 b23f
00000660: e825 3dc9 ab1f af3f 4424 1cd7 ac3f 923f
00000670: 8017 c1aa 30c8 45bf 4015 31d7 807a 74bf
00000680: b08d 8a6e 6059 7fbf 68db 5d2f 2475 aabf
00000690: 7819 df87 d63a 863f b0ea 58e0 a329 b43f
000006a0: c049 b8b6 be5d 503f 2efb d4a1 13b9 b13f
000006b0: 0218 d47b 3562 b2bf 80cd 2a18 5571 62bf
000006c0: 7e48 0f64 0e54 b1bf 8007 3a34 e5d0 403f
000006d0: c043 8c5c 6e43 85bf 152b 393f 36cf a5bf
000006e0: 098e ba38 030a a1bf 6225 ee4b 8375 b4bf
000006f0: dc55 cd6a f138 9f3f 5c1a 3f56 e3ad 9a3f
00000700: 0c31 4f03 56e5 a93f 00ad e32f 3108 7d3f
00000710: 5ac1 b4d8 b718 b43f 10a5 9fde 09dd 903f
00000720: acf7 5ae1 56e3 a73f d375 97ae 27b5 a2bf
00000730: fa91 2b5e 5a67 a9bf 4655 5ce4 d307 aabf
00000740: 0244 178f 8440 b23f 80e3 e500 0904 833f
00000750: e826 6a7c 3473 a93f 18de ff5d eb0d 84bf
00000760: 8ae5 eafa b8ce 9ebf 526f 3c8d e2b7 aebf
00000770: 20ac e5e3 3b76 9cbf 50da 6f25 2511 b33f
00000780: d0d7 908f 0bb1 9bbf c245 3a14 cde2 98bf
00000790: 0996 bf2e a357 a6bf 98e8 7b4e 2714 a03f
000007a0: 6900 d12a c981 b5bf 8044 f0ba ba0d 7ebf
000007b0: 1874 3c93 3f1c 9a3f 98ac 3dc0 3c68 97bf
000007c0: 5cc0 6450 4b52 aebf a090 5da2 31bf 633f
000007d0: 80ae 7168 b9fe a63f 14c8 9e12 5211 9c3f
000007e0: 1081 5f94 b7e6 91bf bedd 4ed6 e925 b3bf
000007f0: 00e5 1098 7bd3 64bf 00b1 d6f3 7508 363f
