AlexNet-19-112/case/initializer/conv5_mutated/weight.npz (npz, 8906 bytes, 1 tensors)

matrix f8 [12, 10, 3, 3]
-0.12685633031782653 0.14532653823519232 0.16331491403985943 -0.01526816523480401 0.026144242762748432 -0.02504487446917597 -0.019425248689402153 -0.15110613542676174
0.07360062735625525 0.08961498767546372 0.13166030844561588 0.0975983207974307 -0.10000203020856775 0.015459522959771627 -0.02039593574587692 -0.004889150618339139
0.05744466004993526 0.07396183448394028 -0.14039304949916281 0.01789189416436554 -0.007528544841429563 0.09258440381884553 -0.05361782106576547 -0.009310224783836779
0.04895059123637191 0.170379375829029 0.10976984857121608 -0.07087421446478637 0.10022495745819365 -0.1323385613999501 -0.0788641969713843 0.04669763133677779
-0.05347246181285689 -0.08950320371141658 0.0329364850032218 0.08669931382724189 0.03165158222699099 0.12158321791432447 -0.05587084678017383 -0.10780546972303419
-0.13659039519947908 0.13157936700570522 0.03211307984033873 -0.04975581398123505 0.00022081100331380887 0.05014619889378247 0.10221489725456406 -0.09513968755372085
0.010143708236580062 -1.9586589273118404e-05 0.10793908335101654 -0.11537444312813921 0.07518471429834842 0.01870690998859431 0.14388877367274722 -0.00813173753923177
0.11782343047813693 0.02117655205260996 0.11001976631816218 -0.05818393436064477 -0.021716437312567782 -0.15063142619332964 -0.1594159495231036 -0.05521408926726211
0.07532110623033555 -0.05560040205261711 -0.15760068749685632 0.008610136508362537 -0.11340488426663034 -0.07782953551506204 0.048624371922684206 -0.0020839612025601584
-0.09414923660779788 0.1489615365182781 -0.10879872999884062 -0.08301755824474813 0.07699443951596352 0.13619937512267083 -0.16724788237989907 -0.04880153340508073
0.14856645256409223 0.019417772668266442 -0.034040198029715196 -0.16587873398298703 -0.16525458300211165 -0.02200316978816305 -0.03899270872103694 -0.017669265609613877
0.054898337241127276 0.045600493452234714 0.05123443482680021 0.06541268253810503 -0.04601332080993095 0.07464762171843378 -0.10191071489715128 -0.130379233041101
-0.08529167042915198 -0.1502164519754261 -0.01592989798274988 0.08620626292872485 0.05295682934758239 -0.10354616972428905 -0.07639447323645125 0.04817902654849432
-0.02874696555160125 0.08283160183496191 0.12170066920273875 0.08225523514283495 0.0875537664176777 -0.10587355955156733 0.009429588334833483 -0.05895911554053081
0.14151624978728305 -0.019464827733708306 -0.12578088169028995 -0.10400734971459481 -0.04109156188909108 0.1729587374032916 -0.025289261523474243 -0.05853538581721188
0.15614562813781324 -0.07005861701845585 0.08393588709775607 -0.03242695859144415 0.09787763989669995 -0.13286901055363542 0.01740200331088343 0.03563278102100703
-0.08891013136244101 0.1545790854780908 0.16185523730475448 0.07974206605106837 -0.10205674297477474 -0.10503166206981507 -0.06964578719252276 0.04675555260393366
-0.15488148626987336 -0.15867279187371103 -0.09831039796812195 0.09237430206445352 0.15589371484240094 0.09011181065207596 0.12963215713914533 0.10068303722281119
0.13435092342138144 -0.07694729251874813 0.007822556034997208 -0.1526403598013843 0.09114662701484777 0.04608749800894227 -0.05120575642221242 0.027592961943614963
-0.12072846593508224 0.08415663212704183 -0.13153696135240947 0.003073922023839465 0.1110937518283362 0.02988930851949026 0.07236711621453634 0.11286794118348725
0.08217006488868228 -0.052973847013650655 -0.007940080063715826 0.012341290432992924 -0.029722292513486986 0.004900217858982231 0.06432640108047805 -0.08596844091209828
0.06668910004444115 -0.10745410124283687 0.014496319928610085 -0.04201711546251552 -0.17070784109045417 0.08459681510032863 -0.05180556504925922 0.030563760696155823
0.1431303229103973 -0.03152044038449758 0.033759737055395145 -0.10832962865974581 -0.1594048601789823 0.06567616336688631 -0.03533241119159694 -0.05351378466922163
0.016353605001466653 0.12512985696283702 0.0072783183798614814 0.04198930349667132 -0.0019224159428537224 0.033097956168324505 0.08210270295047623 0.0760436190504703
0.13516748997353978 0.02024451386609022 -0.08091646406685257 -0.16727074006371712 -0.04892714898205802 -0.03335925726362052 0.047864982847542675 -0.1669610876396064
0.13708774835603904 -0.13793729613084305 0.08043165101020822 -0.1271416972780965 0.1486611763489593 0.02768747823486989 -0.009856928008599108 0.10806629623594133
-0.048607936480641545 0.1407663645698199 0.1734437011233803 0.14021637287897232 0.1069512085953897 0.02195612584161813 0.08988378405154746 0.010871682815330769
-0.1476360704485441 0.07182919060261156 0.05418300412583224 -0.025261988565708215 0.010125459680799476 -0.16939498406978912 0.009881817655926078 -0.15594263830853214
0.12354806064681212 -0.01608670216423011 0.042155887498957795 -0.1453371344987867 0.07123672494885847 0.06746839970729077 -0.14691919118767344 -0.08708742749359487
0.07156914514329157 -0.15553038343003878 -0.00019179622008752562 0.11298258903097391 -0.14303950751519384 -0.0354620940356494 -0.0444325782059356 0.14730528716740343
-0.04384505087704721 0.1393707775070091 0.07705600990157074 -0.1605251615770724 0.06333743631447342 -0.10946385120274303 0.017652396265797343 0.04709085596708276
0.004279900175581941 0.12202884964800975 0.02792520979261523 -0.012564888428164889 0.15406430106178032 -0.011621309821283815 -0.012240202871506761 -0.15802009355461777
00000000: c1b8 0007 d43c c0bf 8203 7b5c 0f9a c23f
00000010: 1c08 60cb 80e7 c43f 40c7 d372 ea44 8fbf
00000020: 6829 946e 8ec5 9a3f 7032 1c13 5da5 99bf
00000030: b0c0 595f 36e4 93bf 7f02 f122 7257 c3bf
00000040: 9ecf 759f 7dd7 b23f e02c 4c01 02f1 b63f
00000050: c243 7ab7 3eda c03f f02f f81b 34fc b83f
00000060: ed86 47a9 bb99 b9bf 901c 310c 3ea9 8f3f
00000070: f8da ff13 ace2 94bf 60fe 2c60 a506 74bf
00000080: 2816 7df0 6269 ad3f 7cbc 42ac 29ef b23f
00000090: 6aa1 1742 66f8 c1bf 40a1 32b1 4052 923f
000000a0: 4028 165e 40d6 7ebf 8487 858a 9cb3 b73f
000000b0: eaa4 eb87 cb73 abbf 704b b837 3d11 83bf
000000c0: 40cd f548 0d10 a93f 069e 8ccb fdce c53f
000000d0: 4843 b375 e019 bc3f c885 4101 d024 b2bf
000000e0: 8ca3 86c2 57a8 b93f 5632 9b50 78f0 c0bf
000000f0: fc40 d1aa 7130 b4bf a8c4 c87e c0e8 a73f
00000100: ac16 7215 be60 abbf 15e8 d394 aee9 b6bf
00000110: 7439 de0b 0ddd a03f c440 791d ed31 b63f
00000120: 682b 10dd a234 a03f 1839 afe8 1320 bf3f
00000130: 1efc 7087 1a9b acbf 6154 caa6 2399 bbbf
00000140: 562c 2a48 cb7b c1bf de16 0fbb 97d7 c03f
00000150: 904d 6027 2071 a03f bca7 ab13 9879 a9bf
00000160: 006c 5e13 30f1 2c3f b0f6 8838 c3ac a93f
00000170: 8452 df68 c12a ba3f aa4a 9816 135b b8bf
00000180: 8018 1779 39c6 843f 00e0 772a bc89 f4be
00000190: f0ec f350 e5a1 bb3f e491 07f4 2d89 bdbf
000001a0: f20c 1231 4e3f b33f b0df 707a e727 933f
000001b0: b0ce 9784 f26a c23f 7043 5356 5fa7 80bf
000001c0: 302b 9b24 ad29 be3f 8831 085a 4eaf 953f
000001d0: 8404 4062 412a bc3f a691 76de 48ca adbf
000001e0: c025 2c70 d53c 96bf 2e06 a0fc e347 c3bf
000001f0: 59cd d4e8 bd67 c4bf 5ed5 5c67 0545 acbf
00000200: 8c34 f577 3e48 b33f 06bf ebe8 a777 acbf
00000210: 8124 5063 422c c4bf 5077 bdf5 30a2 813f
00000220: 6ac0 213d 1a08 bdbf 4337 b3ed a2ec b3bf
00000230: a097 642e 4be5 a83f 0091 c126 6212 61bf
00000240: f381 2c14 2a1a b8bf ee9c daef 2b11 c33f
00000250: 9dfc 30cb 3bda bbbf 02ac a781 a340 b5bf
00000260: d8e5 b157 e8b5 b33f d699 f12a fb6e c13f
00000270: 50ce 92ec 6068 c5bf cc5e f0bb 83fc a8bf
00000280: 52d3 85bb 3904 c33f 7014 49aa 40e2 933f
00000290: 68f0 9282 b76d a1bf 3087 c7ac 833b c5bf
000002a0: 460c c1ea 0f27 c5bf 380f 98ba ff87 96bf
000002b0: 8886 7a31 daf6 a3bf d821 c057 e417 92bf
000002c0: 1460 1c86 a21b ac3f 601c 1ea8 f258 a73f
000002d0: 6c32 055c 663b aa3f a6aa 3eb4 e2be b03f
000002e0: 8436 1ed8 0e8f a7bf 023e 0146 1b1c b33f
000002f0: f661 9813 d216 babf 8c9a fe46 44b0 c0bf
00000300: 804a 1dc7 acd5 b5bf 381e 47ee 4a3a c3bf
00000310: 9846 755b ed4f 90bf 843f fd17 9d11 b63f
00000320: e0a1 4b54 281d ab3f e585 9774 0082 babf
00000330: f34c 2594 968e b3bf 08ff c1de ebaa a83f
00000340: f80b 9d33 d86f 9dbf 3cda f4ac 7334 b53f
00000350: 2488 206a c627 bf3f 00ff dcd8 ad0e b53f
00000360: 0cd2 6773 ec69 b63f aafb c893 871a bbbf
00000370: a052 1aec d14f 833f 9267 18a2 e32f aebf
00000380: 702f 5858 341d c23f e879 277a 96ee 93bf
00000390: 1232 a982 9619 c0bf a15c 91c5 39a0 babf
000003a0: c810 e904 f409 a5bf fc2f 5a0c 8323 c63f
000003b0: 68b6 bb9c 6de5 99bf f4c1 7c9f 59f8 adbf
000003c0: def4 2177 94fc c33f a1b2 e58c 5cef b1bf
000003d0: 24ad 0b82 d27c b53f 4c68 512d 449a a0bf
000003e0: 98b1 5d4e 820e b93f 3868 7d0b da01 c1bf
000003f0: b0a6 6bac d4d1 913f b82f 4dba 753e a23f
00000400: 7318 7c7a d0c2 b6bf 0e12 635a 3fc9 c33f
00000410: bc82 7423 acb7 c43f 1008 cedd f969 b43f
00000420: 20b6 6905 6420 babf b066 a2e1 5ae3 babf
00000430: a6ca 4b6a 4ed4 b1bf 283c ae02 58f0 a73f
00000440: 327a 2413 28d3 c3bf ca69 eed9 634f c4bf
00000450: 733c 21c8 de2a b9bf 288f 5b9e d7a5 b73f
00000460: 3a35 7343 53f4 c33f 20e8 bb4f 9111 b73f
00000470: 8416 b659 c997 c03f e448 2210 5dc6 b93f
00000480: 3c20 243b 6932 c13f aa3e e258 d1b2 b3bf
00000490: 2045 bbb2 4505 803f 66c4 b224 b889 c3bf
000004a0: 2063 2ba6 6255 b73f dcde 67d1 c798 a73f
000004b0: 8893 6612 a437 aabf 2824 9754 5441 9c3f
000004c0: 802e e38c 0fe8 bebf 5826 bafe 498b b53f
000004d0: f5a5 9c01 34d6 c0bf c0d2 0252 7b2e 693f
000004e0: 5484 e4de a370 bc3f 8874 5d8a 4d9b 9e3f
000004f0: f47f 72bd a686 b23f c461 26d4 e9e4 bc3f
00000500: f036 68ed 1809 b53f 5812 ef58 631f abbf
00000510: 4039 9c81 e342 80bf 00b1 66f6 6346 893f
00000520: 38f4 3a49 856f 9ebf a062 2937 4012 743f
00000530: e0f7 e8ec b177 b03f 45a0 341a 0702 b6bf
00000540: aec7 b06f 8912 b13f fbb7 a8aa 1c82 bbbf
00000550: f0bd 0b20 3fb0 8d3f 0049 9171 4483 a5bf
00000560: fabe 5329 c1d9 c5bf aca0 330a 23a8 b53f
00000570: 3a55 464f 4286 aabf 18f2 8742 1b4c 9f3f
00000580: 60a8 fb2b 1852 c23f 28c0 3679 7223 a0bf
00000590: 7022 26cd f448 a13f f70b 4894 7dbb bbbf
000005a0: 3666 a5e2 6067 c4bf 909b c92d 27d0 b03f
000005b0: 240c 1dfd 1617 a2bf 7038 14a6 2866 abbf
000005c0: 60ac 9cda ffbe 903f 224b b451 4104 c03f
000005d0: 0004 95b6 decf 7d3f 749c 993a 9f7f a53f
000005e0: 80bc a566 327f 5fbf e862 9d1e 37f2 a03f
000005f0: 34e3 15c8 ae04 b53f 2029 e438 9877 b33f
00000600: f899 7516 2b4d c13f 30c1 e953 faba 943f
00000610: f605 e0fe f0b6 b4bf 7c60 13ab 2069 c5bf
00000620: 2867 87b1 fa0c a9bf bca4 eeed 7614 a1bf
00000630: 0c58 e84f c281 a83f 01f0 8e1d fb5e c5bf
00000640: 2e8c ef61 178c c13f f4eb e3e7 eda7 c1bf
00000650: f8f1 a62e 2b97 b43f be38 e2db 2d46 c0bf
00000660: 0645 4d55 5407 c33f 3023 1c36 1b5a 9c3f
00000670: 60d8 7c7b de2f 84bf 701a 2298 3baa bb3f
00000680: 4053 05b3 23e3 a8bf e222 1ada a104 c23f
00000690: bad4 0238 6733 c63f b280 f02f 9cf2 c13f
000006a0: d453 2f87 2761 bb3f c816 bfa9 aa7b 963f
000006b0: f42e f1a8 9f02 b73f f096 2791 e443 863f
000006c0: 5caa 241f bde5 c2bf 5c4f 89d8 6563 b23f
000006d0: 0460 70ed dfbd ab3f 50f6 e25a 47de 99bf
000006e0: c0ed 7c31 a8bc 843f ebd4 571e bcae c5bf
000006f0: f005 421d eb3c 843f 2b26 cba9 edf5 c3bf
00000700: 2858 f67f d8a0 bf3f b88f c84e 0879 90bf
00000710: 5ca4 48dc 7495 a53f bc87 c83f 689a c2bf
00000720: 58f3 edeb 913c b23f e69a 41ea 9b45 b13f
00000730: 6625 a780 3fce c2bf 8f4e fa94 5c4b b6bf
00000740: 8e09 cb01 5b52 b23f c8e4 2e6b 6be8 c3bf
00000750: 00a8 4cfc 9c23 29bf 00cb e74c 6dec bc3f
00000760: 7227 685b 1e4f c2bf 04f7 426c 1628 a2bf
00000770: 40fc 8aec ddbf a6bf b0b8 744f e6da c23f
00000780: c87c 37c7 db72 a6bf b491 b4d1 e6d6 c13f
00000790: b4cc 7c52 f1b9 b33f 5f4e 94a7 168c c4bf
000007a0: 1049 95d9 e136 b03f cf8e 02ad d205 bcbf
000007b0: 506a a142 7813 923f f476 a3ec 4a1c a83f
000007c0: c05d 8cf4 cc87 713f b01d 685e 483d bf3f
000007d0: 3842 2c1b 6d98 9c3f a0cd 03c7 9ebb 89bf
000007e0: 0e4e 4507 61b8 c33f 70e9 f3cc e9cc 87bf
000007f0: 9078 3c38 6411 89bf dcc6 f69e 003a c4bf
