AlexNet-19-112/case/initializer/conv3_mutated/weight.npz (npz, 13706 bytes, 1 tensors)

matrix f8 [8, 6, 7, 5]
0	0x3fb72c397cf53361	0.09051856327751075
1	0x3f93152bd8d7333c	0.018635449514295063
2	0xbf9274fe8c4a68dc	-0.01802442294374705
3	0x3fae151d584eb74e	0.05875484183284972
4	0x3faebab2eee2b666	0.06001815000614101
5	0xbfa758fa11275e72	-0.04560071429631031
6	0x3f8a8a232910dbb8	0.01295878857682263
7	0xbf95c7e348830e7c	-0.02127032404020078
8	0x3f90e961ce3472f4	0.016515281878230106
9	0x3f3750542f029600	0.00035574012054903625
10	0xbfb47b7775036612	-0.08000895125169219
11	0x3fb4f31f7d892f77	0.0818347627147754
12	0x3fa43cbb84724db6	0.03952585212496322
13	0xbf85e6aaeb490328	-0.01069386988194905
14	0xbf92f043a4631890	-0.018494660290138187
15	0xbfab053341f232e7	-0.05277404956823322
16	0x3fb27d4aca96a6b3	0.07222430654533234
17	0xbf93fc6ff03a1c8c	-0.019517659222881664
18	0xbf82dd04312259a0	-0.009210617780166797
19	0xbfaf30a3b99ba360	-0.060917965323659784
20	0x3fa550b94baf5a16	0.04163149880303167
21	0xbf9cfc48d9c8fc64	-0.028306139271304778
22	0x3fb1b1ca76bdeb75	0.06911912344905409
23	0xbf9d4d0f59233e00	-0.028614272895366
24	0x3fb3c359c31ff1eb	0.07719956411160182
25	0x3fb1e08f8972f8f3	0.0698327742165679
26	0x3fbc0d746fc540a3	0.10958030442020798
27	0x3fa23aa1f1318cc2	0.035603581135342136
28	0xbf9966f41364a23c	-0.024806798633252067
29	0xbfbb8d95ce8200d6	-0.10762916843123391
30	0x3fa52802956db566	0.04132087778166742
31	0x3f99232c1739235c	0.02454823390715731
32	0xbfb0140308ef512b	-0.06280535667548708
33	0x3fb983b8ac02f77b	0.0996661586713951
34	0x3fa64b78bb2a919e	0.04354455265755351
35	0x3f84e2f380b4f3d0	0.010198500027962881
36	0xbfb4fd2a2f3df3ba	-0.08198798802727839
37	0x3fbbe0b8f4adead3	0.10889774297349257
38	0xbfb504ed61a780e8	-0.08210643419397778
39	0x3fabbef3790c1c66	0.054191216017039065
40	0x3fafbbac9ae184e6	0.061978715807308224
41	0xbfb39ea6e2b08d5a	-0.07663958582320643
42	0x3fb4882252821589	0.08020224108084596
43	0x3fb550058696293d	0.08325228248410084
44	0x3f7976fd0e593d80	0.006216991901580982
45	0xbfb93ec6ca527a51	-0.09861414374834367
46	0xbfb3a620efdc4706	-0.0767536721798728
47	0x3fb32bf8acbae667	0.07488970009844707
48	0x3f993a4341b651a4	0.024636317144158718
49	0x3fb31e9cda5085a9	0.07468586282677471
50	0x3f6b43d139070400	0.0033282362348647787
51	0xbfb1f744b2cebfb4	-0.07017926564617377
52	0xbf89a6ebdadd3b00	-0.012525408379273184
53	0xbf9d52424c222f48	-0.028634105583974973
54	0x3fb58ad7a8bcd269	0.08414981717653237
55	0x3fb404a3262dafa7	0.07819575960246415
56	0xbfa454aeebb76bd0	-0.03970858218573137
57	0x3fb9c98bf9364f2b	0.10073160967141052
58	0xbf6f51257c4cd280	-0.003822873319587139
59	0x3fa777ac3eb26662	0.045834906247546284
60	0x3f8c787a92a55b80	0.013901670074728534
61	0x3fbaaf3ed11209b1	0.10423653225192343
62	0x3fb6d75b7137aee9	0.08922359003161841
63	0xbf968ee35c01cad0	-0.022029449930822065
64	0xbfb9d0da931f7729	-0.10084310619228333
65	0x3fa41ba24b70957e	0.03927333041091695
66	0x3f8e0041a0637708	0.01464892645565953
67	0xbf8f45bc4203b258	-0.015269728436089355
68	0xbf8ec9d612d63340	-0.015033409547663745
69	0x3fb3edc8080cdf51	0.07784700581112004
70	0xbfb68f41927cc867	-0.08812341524461119
71	0xbfbbb813e728de04	-0.10827755349679796
72	0x3fa3540feaba5e7e	0.03775071850139698
73	0xbfb65f4ac5c3318d	-0.08739154174981519
74	0x3fa57b0fc543b56e	0.04195451052678832
75	0x3fab3613a32fd2a6	0.053146947546257636
76	0x3fa0e5333b630c9a	0.03299865817964438
77	0x3fa49ea991e6e176	0.040272997913635075
78	0x3f5825404ce861c0	0.001473725121860267
79	0x3fa2238c6268f6d2	0.03542746259016173
80	0x3fa714d5a82d49ea	0.045080830363662575
81	0x3fa23411b54a89fa	0.03555350626017524
82	0xbfa3446c2c1287fa	-0.03763139760964403
83	0xbf8b31e35f993c78	-0.013278747897088147
84	0x3fab02dbc4276816	0.052756183332988524
85	0xbfb59e5ab8d44d18	-0.08444754612382999
86	0x3f990fb1e9173f94	0.024473934032186742
87	0x3f8d28598b6d8080	0.01423711735486699
88	0xbfbb9c5d94726d1f	-0.10785469888871944
89	0xbf915f9f39bb843c	-0.016966331385337194
90	0x3f950b2fab41af94	0.020550484492943236
91	0x3fb11e55a6c375b5	0.0668691188943374
92	0xbfb99bdc76992291	-0.10003450293982953
93	0xbfb0b2f9c6a12ef6	-0.065230952256737
94	0xbf94105b77c54158	-0.01959364813348094
95	0xbfafa85e61f41d8b	-0.06183142610285149
96	0xbfaae45e739e9db5	-0.05252356683132168
97	0x3f87710a39db45a0	0.011446075335160455
98	0x3fbb142b7dd34267	0.10577651807694509
99	0xbfa5cc8b6b1569de	-0.04257617647336408
100	0xbfa5762d7f44f22e	-0.041917249475293836
101	0xbfb3529debcda37c	-0.07547938353458322
102	0xbf8c5e97627fbb00	-0.013852293675851168
103	0x3fb85d15279782b5	0.09517032829854595
104	0xbfb56a1c682cbd88	-0.08365037482575677
105	0xbfbaae1d597bf1dd	-0.10421927866622789
106	0x3f8e7333cda15b78	0.014868168557013325
107	0x3f9855d0549a784c	0.023764853633672353
108	0x3faa6cb22614c236	0.051610533855982174
109	0xbfb6e04aae612d19	-0.08935992009462658
110	0xbfab0b792ec2f29e	-0.052821909864609426
111	0xbf857d324c8c54a8	-0.010492699585976276
112	0xbfa5922803f23eca	-0.04213070915386437
113	0xbfb859ea846046b2	-0.09512201053464756
114	0xbfa0f6335a80c86e	-0.03312836150907193
115	0x3fb5446755d2a1b7	0.08307500691683499
116	0x3fb4cf9987988a2d	0.08129272041745912
117	0xbf944092ff9933d0	-0.019777581072322026
118	0xbf8f52b5b16520d0	-0.015294475055853601
119	0x3fb502e41f5cb8dd	0.08207536473921402
120	0xbfa13cb33b7e451e	-0.03366623021350733
121	0x3faadbbd68afef46	0.052457732228474316
122	0xbf9726bfbb668a54	-0.02260875302602934
123	0x3fa3e778f79dd706	0.03887537024176706
124	0x3fb7255338798ccb	0.09041328552989396
125	0x3f51cd9dcebbac40	0.0010866204347006608
126	0x3fbb4557a6541e35	0.10652683077579968
127	0x3fb4ecb49dc6b101	0.08173683978992942
128	0x3f9d17e073b5227c	0.028411395132283065
129	0x3f98c9616f1af594	0.024205706030206622
130	0xbfb5c19d64ff20fe	-0.08498557773339496
131	0x3fbae479039154af	0.10504871689893734
132	0x3fbc0746a2d52e17	0.10948602176102216
133	0xbf9abdb84e8ed0e0	-0.026114349169532924
134	0x3fbbef752bcd6259	0.10912258452788971
135	0xbfa11814a0c7b756	-0.03338684523246964
136	0xbfb86fc30a45e11f	-0.09545535088353006
137	0xbfaac1c92437cb66	-0.052259717627655175
138	0x3fa4a1c69052a7be	0.04029675018075761
139	0xbfa90f554683df73	-0.04894510732441306
140	0xbfac6d5e98b37f25	-0.05552192319896524
141	0xbf9c5cd5a46f92bc	-0.027697885667196984
142	0x3fb750aa51c7aa69	0.09107460495548882
143	0x3fbbe6ffda21976f	0.10899352145642437
144	0xbfb26b40e3ff3e88	-0.07194905821165254
145	0xbfb48c5fc64331d8	-0.08026693907158433
146	0x3fabe202270952f2	0.05445868231314489
147	0xbfb408a46ddae80e	-0.07825687105187759
148	0x3fb46b74977992c3	0.0797646398364789
149	0xbf874f8846c15550	-0.011382164630200947
150	0x3fb877f2693e4963	0.09558024472634012
151	0xbf960c2e21a59f44	-0.02153083877911334
152	0xbfb6dbf17d1ef3d1	-0.08929356865605988
153	0xbfa5458da4115446	-0.0415462744501061
154	0xbfbb811dca0ef5e3	-0.1074389093691575
155	0xbfa733ee3bfedff6	-0.04531807405822967
156	0xbfb2833d8f9f77a0	-0.07231507069033549
157	0x3fb0dacfdf4bf713	0.06583880616741693
158	0x3fb6126e948e6021	0.08621874930247532
159	0xbf9bc945fed634dc	-0.027134984663963788
160	0xbfab51bc68122437	-0.05335797090908339
161	0x3f65ed0c4b592b80	0.002676509868967114
162	0x3fb2c79254bc56ef	0.07335772103064263
163	0x3fb0845d3f709091	0.06451971815892167
164	0xbfaf8e82f9af2494	-0.0616341523924088
165	0xbfb8c44155f5fd9b	-0.0967446169724923
166	0xbfb300dac6cfd390	-0.0742317901020455
167	0xbfb321b1336115e6	-0.07473285202384936
168	0x3f7838aac8629a70	0.005913416977057481
169	0xbfb22644b6c16f13	-0.07089642965132396
170	0xbfb652de11e60114	-0.08720195710157369
171	0x3fb3dbd9a21e636b	0.07757339675880608
172	0x3fa5ab199930646a	0.042321014356453926
173	0xbfba60af9833dbb5	-0.10303781000025831
174	0xbfba20f6551b2bc0	-0.10206546380793124
175	0x3fb6a77a329287b5	0.08849300131490064
176	0xbfb6adc653371f17	-0.08858909160255411
177	0xbf919815f9fba1c4	-0.017181723959682108
178	0xbfa39307aa230cd0	-0.03823112441889409
179	0xbf7ea427de3d5870	-0.007480769858224531
180	0x3fa7c77753bd0f22	0.04644368073652873
181	0x3f95dd414be9c214	0.021351833589905736
182	0xbfb4380d75ff884c	-0.07898029452147276
183	0xbf8c503ab63d2b78	-0.013824900328150966
184	0xbfa932b89e36f50b	-0.049215096772494325
185	0xbfa4a1f52d5ef866	-0.04029813937039321
186	0xbfa606f87be6054a	-0.04302193176682552
187	0xbfb7b09e7270e667	-0.09253874105424985
188	0x3fa008e8e7beff06	0.0313179762738383
189	0xbf7c908483b555d0	-0.006973760256490505
190	0xbfa41aa87c3c6e06	-0.03926588551095382
191	0x3fb4e5d6222758c3	0.08163202604132196
192	0x3fbb0bba5149aa79	0.10564770206989661
193	0xbf8c5b76d02ff398	-0.013846328953144568
194	0xbf907d38688be8e8	-0.01610267770863852
195	0xbfb221e87ef939e9	-0.07082989787998141
196	0xbfb8ea95f31768b4	-0.0973294943318333
197	0xbf908853050ac918	-0.016145035917994738
198	0x3fb6a5ed783d96c7	0.08846935449181635
199	0x3fa417b583bca312	0.039243385630760255
200	0xbfaf20b6cd9cde36	-0.06079646358415085
201	0xbf94aebbf2a3ee4c	-0.0201978079648895
202	0x3fb0a73920f095c3	0.06505162290758108
203	0xbfb33826bf707cf0	-0.07507555173696168
204	0x3fa411fa7ed93342	0.03919966505472995
205	0x3fb29a3ffbd1ab2b	0.07266616723942991
206	0x3f80648b84115a88	0.008004274337662723
207	0x3fb54d397eb4a4f9	0.08320960372352094
208	0x3fb15e66d555422d	0.06784670551611134
209	0xbf9c389298fd2c5c	-0.0275595575215387
210	0x3f9e23f3eef1d5cc	0.029434024294877223
211	0x3fa1a1e599b6ce52	0.03443830014603279
212	0xbfb0205aaf58f3ba	-0.06299368649429385
213	0x3fa5764a8c5ba82e	0.04191811526637
214	0x3fac3b0676e18226	0.055137826930835396
215	0xbfacd0520f759497	-0.05627685965263501
216	0x3fbc0a47691e5dcb	0.1095318442952397
217	0xbf7ea8e633add7f0	-0.007485293603954432
218	0xbfa4c2b6b556cdfa	-0.04054804767238447
219	0xbfb63af58a08532b	-0.08683714504179522
220	0x3fa0af955f4eafaa	0.032589595684242426
221	0x3fa45b664c6b1676	0.03975982363548962
222	0x3fa2eff86c8eeb92	0.036987078906768237
223	0x3fb44ecacc0041b1	0.07932727318280432
224	0x3f805beb5f6424c8	0.007987822388275126
225	0xbfb7d8a937bd9ade	-0.09314973460059714
226	0xbfb47eeb5a8cef00	-0.0800616355963335
227	0x3fa47d00304bbbda	0.04001617993878144
228	0x3f8eaadba4437d48	0.0149743232254297
229	0xbf9f7cc699edd7b8	-0.03074941935070516
230	0x3fb2230f3dfb68f5	0.07084746611818445
231	0x3f97bbdf9248669c	0.023177617362398636
232	0x3f0d34fa3c2e9800	5.570782334211877e-05
233	0x3fa236d912160a42	0.035574706514144086
234	0xbfa9598bf79d916b	-0.04951131246233128
235	0x3f889b19121df278	0.012014575829874405
236	0xbf970d446008b950	-0.022511547433333334
237	0xbf91041761bb3a3c	-0.016617169704483667
238	0x3f9724176b21252c	0.022598615564026023
239	0x3face189192e5c9a	0.05640819961916428
240	0xbfb8f72c72d7cecb	-0.09752157024177703
241	0xbf99cd69bdb517f8	-0.025197651103802315
242	0xbfa5ae1e4b84fb88	-0.04234404250973173
243	0xbfa335b4c3850200	-0.03751912008965874
244	0x3fb0a2b68dee3199	0.06498280491923082
245	0x3fa36bda8197415a	0.03793223220748372
246	0xbf998f540830156c	-0.02496081638311891
247	0xbfb2e5633594180c	-0.07381267602986002
248	0x3f66278020f5c4c0	0.0027043821825648295
249	0xbfb74445502022ba	-0.0908854790324182
250	0x3fa83d879194cb0e	0.04734443332781356
251	0x3f8a53228ed77030	0.01285387991350015
252	0xbf9435eca6f211f4	-0.01973695534663196
253	0x3f9aafb013906f24	0.02606082076464057
254	0x3fb9dc8c66812ea3	0.10102155211023471
255	0x3fb2f24a4cc57345	0.07400955557154727
